task 3/gnn_model.pt (torch, 216551 bytes, 6 tensors)

conv1.bias f4 [64]
000000 59 3e 3b bd 41 f5 0e 3f 4e 7c b2 bc 3b 7b 0c bd
       -0.045713756 0.5584298 -0.021787789 -0.03429721
000010 ab fb 75 bd ed 0b fb be 8e 4a a0 bd 50 bd c2 bc
       -0.060054462 -0.49032536 -0.0782672 -0.023771912
000020 14 49 7e bd b7 ba 75 bd e7 d1 33 be d3 fb 75 bd
       -0.06208141 -0.05999252 -0.1756054 -0.06005461
000030 ca f1 40 bf 0d 12 3d bd 76 ca 67 bd de d3 77 bd
       -0.7536894 -0.046159793 -0.056589566 -0.060504787
000040 c0 8a 82 bd 65 fa 72 bd 2e fc 75 bd 65 be 75 bd
       -0.06374121 -0.059320826 -0.06005495 -0.059996027
000050 a2 ef 75 bd 07 65 75 bd f6 69 7b bd 8c fd ca bc
       -0.060042985 -0.0599108 -0.06138035 -0.024779104
000060 00 00 00 00 88 f0 8d bd d4 e2 6e bd f6 bd 64 bd
       0.0 -0.06930643 -0.05832179 -0.055845223
000070 cb 9b 76 bd 11 f9 75 bd 6d fb 75 bd 00 00 00 00
       -0.06020717 -0.06005198 -0.06005423 0.0
000080 fe fb 75 bd d1 90 51 bd 00 00 00 00 cd 90 3a bd
       -0.06005477 -0.0511635 0.0 -0.04554825
000090 40 9f 6f bd 00 00 00 00 ed 0e 71 bd 00 00 00 00
       -0.058501482 0.0 -0.058852125 0.0
0000a0 17 fc 75 bd a3 fb 75 bd d7 ae 71 be 15 fc 75 bd
       -0.060054865 -0.060054433 -0.23601852 -0.060054857
0000b0 00 00 00 00 2a 62 26 bd ce fb 75 bd 76 d8 2a bd
       0.0 -0.04062096 -0.060054593 -0.04171034
0000c0 4e 88 8a 3f 82 fb 75 bd 00 00 00 00 e3 fb 75 bd
       1.0822847 -0.06005431 0.0 -0.06005467
0000d0 1a d6 74 bd e6 cc c8 be 43 02 21 bd 5f 42 46 bc
       -0.059774496 -0.39218825 -0.039308798 -0.012100785
0000e0 ec 12 ec bc 00 00 00 00 33 3e 75 bd 10 fc 75 bd
       -0.028817616 0.0 -0.05987377 -0.06005484
0000f0 23 01 27 bc 9c f4 3a bd 4d d5 3a bd 00 00 00 00
       -0.010193142 -0.045643434 -0.045613576 0.0

conv1.lin.weight f4 [64, 768]
000000 09 cc 59 3c 07 75 c6 3c 9e 8b 1a be bb dd 1a bd
       0.013293275 0.024225725 -0.15092322 -0.037809115
000010 45 ce 23 3d 1e a9 cf 3d 1e 1a 9b bd cc 7d f7 3c
       0.039991636 0.101396784 -0.07573341 0.030211352
000020 24 c1 54 3c 4a 46 31 3b 62 80 d6 3d 6d b3 49 bb
       0.012985501 0.0027049952 0.10473706 -0.0030777112
000030 d0 44 58 3d eb f4 e4 bd ab 11 f4 bc 9d d0 a5 bd
       0.0528 -0.11179527 -0.029793581 -0.080964305
000040 54 94 80 bc c2 01 d0 bb 29 fc e1 3d d3 9d d2 3b
       -0.015695728 -0.006347866 0.11034424 0.0064275055
000050 fe dd da bd 25 37 ef 3d 18 c1 15 bd e3 8c 86 3d
       -0.10686873 0.1168044 -0.0365611 0.06569841
000060 ea f5 14 be 6f 2a 21 bd a9 9e b9 bb a6 a2 9c bd
       -0.14546934 -0.03934711 -0.0056646657 -0.0764821
000070 d4 0b 21 3c 1b 56 ef bd fa d2 1a 3e 73 4b 80 bc
       0.00982948 -0.11686345 0.15119544 -0.015660977
000080 98 24 a6 bc c5 ae 33 3c 40 f9 ea 3d ab b1 90 3c
       -0.020281121 0.010966961 0.11473322 0.017662844
000090 7a 9b 5e 3d b3 a5 1d 3d 24 5e c8 3d 07 82 30 3d
       0.054347493 0.0384881 0.09783581 0.043092754
0000a0 92 c3 eb 3d af a6 d2 bd 76 88 a0 bd 3f 59 ea 3d
       0.115119115 -0.102856986 -0.07838528 0.114428036
0000b0 42 61 02 be 55 df 8f 3d 16 f1 43 bc f8 8c 9b bd
       -0.12732413 0.07025019 -0.011959335 -0.07595247
0000c0 39 8e f4 3d 09 03 f1 bd 3c f4 dc bd 58 52 f2 bd
       0.11941189 -0.11768157 -0.107887715 -0.11832112
0000d0 0c 69 e0 bc bb 18 75 bd 57 e0 22 bd 0a e4 88 bd
       -0.02739384 -0.059838038 -0.03976473 -0.0668412
0000e0 c0 64 5d 3d c4 7a a1 bd 81 36 03 3d de 12 ec bc
       0.05405116 -0.07884744 0.0320344 -0.02881759
0000f0 84 72 88 bc 1a b6 cb 3c 61 17 03 be cc 4a 7a 3d
       -0.016656168 0.024867106 -0.12801887 0.061106488
000100 a7 45 13 ba fb 1c fc bd e3 55 04 be 26 ae b5 bd
       -0.0005617984 -0.12310215 -0.12923388 -0.08871107
000110 88 a7 ce 3d 60 9c 8c 3d 87 37 ed 3d 38 a0 ab bd
       0.10090548 0.06865764 0.115828566 -0.08380169
000120 ce dc 35 3c 60 79 d9 bd fd aa 6e bd 9e 35 0b 3b
       0.011100007 -0.106188536 -0.058268536 0.0021241675
000130 07 0f c9 3c 58 df b5 bd 4f ac 8a bd 22 42 e0 bb
       0.024543298 -0.0888049 -0.067711465 -0.006843821
000140 50 20 af bd ea d8 43 bd 45 04 fc 3c 33 5e 8c 3d
       -0.08551085 -0.047814287 0.030763755 0.068539046
000150 7b ac ab bc 77 2c 1f bd d9 e7 0a bd 73 67 c4 bd
       -0.020956269 -0.038860764 -0.033912513 -0.09590044
000160 bd f3 be bc b6 6e e2 bd b4 cd c9 bd 23 2c 56 bc
       -0.023309583 -0.11056273 -0.09853688 -0.013072046
000170 ce 0e b4 3d d6 e4 94 3d 4a 94 20 3d 0b f9 e3 3b
       0.08791886 0.072702095 0.03920392 0.0069571785
000180 2c 66 c2 3d a9 71 b9 bd 0e 80 c0 bb 35 71 85 3b
       0.09492144 -0.09054882 -0.0058746403 0.004072333
000190 cb cf 4a 3d 28 81 88 bc 72 f2 da bd 6a c9 ad 3c
       0.049514573 -0.016663149 -0.10690774 0.021214206
0001a0 3b 4f bf 3a 4b 23 80 3c e4 69 8c bd 8e 78 11 3e
       0.0014595756 0.015641829 -0.068561345 0.14206144
0001b0 96 f3 57 bd 65 4b c1 bd f0 88 e7 3c 1d 70 c5 3d
       -0.052722536 -0.094382085 0.02826354 0.096405245
0001c0 5c e7 4a bd b8 38 cf bc 45 4f 12 bc 63 cd 75 3d
       -0.049537048 -0.0252956 -0.008930032 0.060010325
0001d0 c8 b2 a5 bd 00 66 e1 bd d4 ff 5e 3d 1c b2 dc 3d
       -0.080907404 -0.11005783 0.054443195 0.10776159
0001e0 c9 fd f6 bd 36 a0 b5 3d 0d 42 c9 3c 15 47 cf bd
       -0.120601244 0.088684484 0.024567628 -0.1012098
0001f0 3e a0 7c 3c 33 ae f0 3d 06 82 e4 3c 7a 7d 5e bc
       0.015419064 0.11751976 0.027894031 -0.013579721
000200 28 0f ef 3c 49 45 02 3b a2 1a 7d 3d a3 ff 59 3b
       0.029182032 0.0019877723 0.061792977 0.0033263944
000210 dc 14 e5 3d 9c 46 ee bd 7d 8a 20 bd 55 9c cb bc
       0.11185619 -0.116345614 -0.039194573 -0.024854818
000220 f8 63 20 3d 9c 44 00 be c5 ff 48 3d 3c e9 ef bd
       0.039157838 -0.12526172 0.049072046 -0.11714408
000230 20 24 49 bd ec 64 80 3d 0f f7 de bd 39 c5 0f 3e
       -0.049106717 0.06269249 -0.108869664 0.14040078
000240 92 8b 5a 3d 76 15 51 bc 0b e6 3c 3d cf ae 01 bd
       0.05335576 -0.012761464 0.046117824 -0.03166085
000250 31 38 05 3d 45 a2 8b bd 6a a2 bc bd 93 ab cb 3d
       0.03252429 -0.0681806 -0.092106655 0.099448346
000260 f1 c7 f8 3b 70 0d db 3d 89 85 63 3d 23 c0 3b bc
       0.0075921942 0.106959224 0.05554727 -0.011459383
000270 a3 fb a5 bd 89 3e a6 bb 82 cc b4 bd 74 69 5d 3c
       -0.081046365 -0.0050733727 -0.08828069 0.0135139115
000280 ab c7 8a 3d 67 10 df bd 9c fc 03 3d e6 6b 01 be
       0.06776365 -0.108918004 0.03222333 -0.12638816
000290 84 7f 4b bd 72 99 04 3e df f1 16 bd 0a 7b ac 3d
       -0.049682155 0.1294916 -0.03685176 0.08421905
0002a0 10 0a 56 bc ac ad c8 bd 93 76 ee bd 77 36 51 3d
       -0.0130639225 -0.0979875 -0.1164371 0.051077332
0002b0 89 74 da 3d b7 b7 ab 3c 7d 82 c9 bd ba de 59 bd
       0.106667586 0.020961626 -0.09839342 -0.053190924
0002c0 0d 60 da bd 33 d5 4b 39 88 2e 73 bd 15 cb fb 3d
       -0.106628515 0.00019439012 -0.059370548 0.12294594
0002d0 cf 34 c8 3d a2 a2 a6 3b 45 cd 19 be 5a 47 53 bd
       0.097756974 0.0050853053 -0.1501971 -0.051581718
0002e0 4e 24 17 3d 43 f3 37 bd 27 94 91 bd 51 69 99 bd
       0.036899857 -0.044909727 -0.07108336 -0.07490791
0002f0 22 02 a1 3c 7a f1 59 bc cc 40 ef bd f0 67 82 bc
       0.019654337 -0.013302201 -0.11682281 -0.015918702
000300 06 fd 86 3d 3e 29 2a bd 76 fa 11 be 54 fd 0e 3c
       0.06591229 -0.041543238 -0.142557 0.00872739
000310 6a ce fb 3c 43 cf fb 3d b7 79 d4 bb 21 4a 44 bd
       0.030738074 0.122953914 -0.006484236 -0.047922257
000320 b5 fa 81 3d 53 1d 0f bd db 4b 04 3e 80 f4 3a bd
       0.06346647 -0.034940075 0.12919562 -0.04564333
000330 5a ae a8 bc f2 31 f1 3d 9c cf 88 3d 9d 03 89 bd
       -0.02059095 0.117771044 0.06680223 -0.06690142
000340 5d f1 47 bd 62 22 f9 3d 56 a2 de bc cc f1 86 bd
       -0.048814166 0.12164761 -0.027177017 -0.06589088
000350 6f 79 4e bd 7e dc 5e bd f2 ff f3 bd 19 da f2 3d
       -0.050408777 -0.054409496 -0.11914052 0.11858005
000360 5c 06 7e bb 38 6c c3 bd c3 a2 60 3d e5 6b 80 3a
       -0.0038761115 -0.095421255 0.05484272 0.000979778
000370 0e 2f 04 bd 6e 1c f2 bd 06 b3 51 3c 96 2b 81 3d
       -0.032271437 -0.11821829 0.01279903 0.063071415
000380 48 3f 07 3d ef 94 13 3d 33 84 dd bd 7f f0 d5 3b
       0.033019334 0.036030706 -0.108162306 0.0065289135
000390 4a 2c f4 bc de 99 1b bc 10 20 be 3c bc 9f e0 bd
       -0.029806275 -0.009497134 0.023208648 -0.10967967
0003a0 55 63 7d 3d 18 cf 47 bc 45 3d 98 3d 26 00 f2 3c
       0.06186231 -0.012195371 0.07433561 0.029541086
0003b0 fb 2e 1a 3d da b5 51 bc 0f ad 33 3d 0b 46 ca bc
       0.03764246 -0.012799704 0.043866213 -0.024691602
0003c0 e3 79 df 3d dd ff d2 3d a5 36 7b bd 15 10 99 3c
       0.1091192 0.10302708 -0.06133141 0.018684426
0003d0 84 5a 90 3d 8b 70 2e bd 98 96 be bc 3e c5 02 be
       0.070485145 -0.042587798 -0.023265168 -0.12770554
0003e0 f4 00 37 bd 65 5d 01 be 66 0a 87 bb 5a 05 39 3c
       -0.044678643 -0.12633283 -0.0041211126 0.01129278
0003f0 c9 0e 80 3c d0 11 5c 3d e1 34 3f 3b fe c7 5b 3d
       0.01563205 0.053727925 0.0029175805 0.053657524

conv2.bias f4 [64]
000000 0e bd 58 3f fa 8e 94 bf 99 a4 d5 bc 0a 59 3d bc
       0.84663475 -1.1606133 -0.026079463 -0.011556873
000010 39 40 1e 3f eb 64 f4 bd 41 5a 16 bd 33 fc 75 bd
       0.61816746 -0.11933311 -0.036707167 -0.06005497
000020 28 ca ab 3e fd 8b e9 bb 67 f9 ce bd 1e cb 30 40
       0.3355267 -0.0071272836 -0.101061635 2.7623973
000030 81 4f 35 bd de e2 98 3d 6b 55 16 3f 1d c5 0d 3f
       -0.044265274 0.074651465 0.5872409 0.55378896
000040 b5 c1 52 be 37 20 a0 3f c8 a7 ea bd bd 2f 13 3f
       -0.20581706 1.2509831 -0.11457783 0.5749472
000050 b1 b6 83 bd 94 a6 a9 be 35 fc 75 bd 11 3f 9b 3f
       -0.0643133 -0.33134902 -0.060054976 1.2128621
000060 4d 44 c2 3f f4 3d 04 bf b2 8d 32 be 33 bb e9 3f
       1.5177094 -0.5165703 -0.17436865 1.8260254
000070 ae da 20 3f d2 35 bb bd bd fe 51 bf 0c 04 a3 3e
       0.6283368 -0.09141125 -0.82029325 0.31839025
000080 9c 77 55 3f 56 4b c7 3f bf bb f1 3f ff 47 ae 3f
       0.83385634 1.5569866 1.888542 1.3615721
000090 ef 59 a5 3f d0 7f dc be b2 99 88 bd 6e c0 08 be
       1.291807 -0.43066263 -0.0666994 -0.13354656
0000a0 bc 60 51 bf 41 ca fb 3d 26 e7 0c be 52 71 b4 bd
       -0.8178823 0.12294436 -0.13760051 -0.08810677
0000b0 a2 d6 fb 3f 2e e1 7d bf 0d cd 67 3f e4 2e 48 bd
       1.9674876 -0.9917172 0.9054726 -0.048872843
0000c0 1c 90 cf 3f 82 23 a2 bd 12 d6 b5 3e d4 69 7a bf
       1.6215854 -0.07916929 0.35514885 -0.9781773
0000d0 8c 36 ac be 3b ca b9 be 9c f7 bb bf 35 5b ad 3f
       -0.33635366 -0.36287102 -1.4684939 1.3543459
0000e0 e0 22 35 bf 75 fb 75 bd 0e ab 5d bd 0d 83 a8 3f
       -0.7075634 -0.06005426 -0.05411821 1.3164994
0000f0 d7 de 19 be 02 6b 9d bd 6a 55 ef bd 48 ab 9b 3f
       -0.15026413 -0.07686426 -0.11686213 1.2161646

conv2.lin.weight f4 [64, 64]
000000 dd b7 2c 3e c9 07 20 3f 57 a2 3c 3d a2 39 93 3d
       0.16867013 0.6251188 0.046053257 0.07188727
000010 94 22 01 be 34 d4 13 be cb e1 82 be f5 1f b5 3d
       -0.12610847 -0.14436418 -0.2556289 0.08843986
000020 bf 2d ca bd cf 35 7b bd 29 0e 27 c0 c1 92 f5 3d
       -0.098720066 -0.061330613 -2.6102393 0.11990882
000030 2f 79 66 3f 60 ae d7 bc cf 73 d1 bc 55 92 06 be
       0.9002866 -0.026328266 -0.025567917 -0.13141759
000040 11 94 88 bc 74 1b 33 bd f4 65 cc bd 91 14 6d be
       -0.016672166 -0.043727353 -0.099803835 -0.23152377
000050 51 65 df bc 0c 8e 91 bc 79 27 af bb 54 46 fc bc
       -0.027269991 -0.017767929 -0.0053452817 -0.030795254
000060 b5 54 84 bd b8 10 50 3e f0 e8 70 3d f3 85 35 be
       -0.06461469 0.20318878 0.058815897 -0.17726879
000070 e5 93 24 3d 06 4c 08 bd fb f9 c2 bd f8 f5 cb 3b
       0.040180106 -0.033275627 -0.09520336 0.00622439
000080 ec 64 36 be c8 5e 45 bf 05 2c 84 bd 57 ae 3a bd
       -0.17811936 -0.7709775 -0.064537086 -0.04557642
000090 8c e5 0c 3e a1 5c 55 3e 37 a2 d0 bd 4f c4 9a bd
       0.1375944 0.20836116 -0.1018719 -0.07556974
0000a0 a1 6b 3a 3e 15 7c e8 3d 40 10 66 3e 10 6f 70 be
       0.1820512 0.11351792 0.22467136 -0.23479867
0000b0 c2 02 6b bd 1a 57 87 be 62 d4 34 bd f0 5f 12 bd
       -0.057375677 -0.2643364 -0.044147857 -0.035736024
0000c0 26 a4 a9 be fa 03 41 3e 6c f5 1b bd 14 7d 0d be
       -0.33133048 0.18849173 -0.03807585 -0.13817245
0000d0 c8 76 50 be d1 e8 45 bf 63 9f c4 bd bd 8b 8d bd
       -0.20357811 -0.77308375 -0.09600713 -0.069114186
0000e0 38 46 30 be be db 9e bc 38 87 90 bd 63 a3 ed bd
       -0.17214286 -0.01939189 -0.07057041 -0.11603429
0000f0 b4 c4 32 be 17 44 38 3c 6d cb 1b be 08 e4 68 bd
       -0.17457849 0.011246703 -0.1521432 -0.056858093
000100 ac cf 25 be 50 1e 39 bc 41 45 aa 3d 9f 4a dc bc
       -0.16192502 -0.011298731 0.083139904 -0.02689105
000110 f7 ca 87 be c5 36 05 3f 46 f8 7f be 71 e6 49 be
       -0.26522037 0.52036697 -0.24997053 -0.19716813
000120 3f ff 99 3d e4 71 2e 3d c3 36 f1 bf 49 3a c2 3d
       0.075193875 0.042589083 -1.8844837 0.09483773
000130 e3 9c b9 bc cc 92 8f 3d 24 26 00 3e 4c 37 1d be
       -0.022657817 0.07010421 0.1251455 -0.15353125
000140 cc 12 a8 bd df d1 42 bd b8 09 41 3d 05 33 38 be
       -0.0820671 -0.04756343 0.04712841 -0.17988212
000150 be 5e 87 be aa df 0c be 1e 64 20 be 68 3c 56 be
       -0.2643947 -0.13757196 -0.15663192 -0.2092148
000160 39 45 f5 bc f7 23 15 3e f6 52 4e bd 67 ec 66 be
       -0.029940234 0.14564501 -0.050372086 -0.22551118
000170 d1 da 08 3b 71 20 5e bd f0 53 03 3e 0b 9b a3 bc
       0.0020882378 -0.054230157 0.12824988 -0.019971391
000180 5a e2 a2 bd 16 82 90 bf de 61 30 be 85 7b fc bd
       -0.079533294 -1.1289699 -0.17224833 -0.12328247
000190 2b 12 02 3e 85 fa 9d 3a f0 b4 4a 3e 72 0b 3d 3e
       0.12702243 0.001205281 0.19795585 0.18461397
0001a0 6d 62 7a bc e8 da 63 3d 69 29 c1 be c8 b4 49 be
       -0.015282256 0.055628687 -0.37726906 -0.19697869
0001b0 17 6f 9d bc 65 73 24 bd cc 72 af bd a4 48 27 3d
       -0.01921801 -0.04014911 -0.08566818 0.04084076
0001c0 38 b9 e0 3e 95 8c ae 3d bc 76 33 be dd 7a 1b be
       0.4389131 0.08522908 -0.17525762 -0.15183587
0001d0 5f 81 90 bd de ab 7a bf 66 32 65 3d 17 0f 38 be
       -0.070559256 -0.979185 0.055956267 -0.17974506
0001e0 d8 4c d1 3d 61 64 df 3d c7 b2 a3 ba 88 e3 e4 3d
       0.10219735 0.10907818 -0.0012489193 0.11176211
0001f0 9a 16 3f 3e dc 83 e4 bc 5c 8e 1d be 93 b8 3f be
       0.18660966 -0.027894907 -0.15386337 -0.18722753
000200 eb e0 75 3e 29 5e 75 3e 25 46 19 3e be a5 97 3d
       0.2401158 0.239617 0.14968164 0.0740466
000210 fd 5e 1b 3e 79 55 ab 3e d7 83 78 3e e1 ac c0 3c
       0.15172954 0.33463648 0.24269043 0.023519935
000220 2b 80 83 3b d9 7d 1d bd b0 2f 15 bf cf b2 da bd
       0.0040130815 -0.038450096 -0.5827589 -0.10678636
000230 1a 80 c3 3e 10 34 1a 3e 2a 1f 63 bd f1 5c 05 3e
       0.3818367 0.15058923 -0.055449642 0.13023736
000240 e4 03 69 bc 9d 81 50 3e ce 97 0b be d4 08 dc bd
       -0.014222119 0.20361944 -0.13632128 -0.10743871
000250 f3 fb 2b 3e 63 13 a9 3d 2c 5c 12 3e 1b 35 60 3d
       0.1679533 0.08255651 0.14292973 0.054738145
000260 03 aa cd bc dd ea 2d 3d 63 41 08 be 5b 08 67 be
       -0.025105482 0.04246031 -0.13306193 -0.22561781
000270 d7 f2 4f be 0c c9 c2 bd a6 48 02 be 10 0c 5d 3e
       -0.2030748 -0.09511003 -0.12723026 0.21586633
000280 66 70 ee bd 98 04 41 3e 4e 24 08 be 88 33 2b 3e
       -0.11642532 0.18849409 -0.13295099 0.16718876
000290 71 98 d2 bc f6 6d d5 3d 94 d7 5c be b6 d5 00 3a
       -0.025707455 0.10421364 -0.21566612 0.0004914658
0002a0 df 91 a6 bb 83 73 5e bc d2 39 9c be 8b 00 05 be
       -0.005083307 -0.013577345 -0.30512863 -0.12988488
0002b0 fb d3 e0 bd e7 5b 5a be b3 03 06 be f5 b2 3a 3d
       -0.10977932 -0.2132412 -0.13087349 0.045580823
0002c0 9e a4 e8 3c 08 c2 04 bd bf 2d a5 bd ed 59 0c be
       0.028398808 -0.032411605 -0.08065366 -0.13706179
0002d0 30 73 b8 bc cf 06 9c 3f 32 b6 36 be ac 38 eb 3d
       -0.022515863 1.2189578 -0.1784294 0.11485419
0002e0 13 7e 7e 3c a2 41 ef 3d d2 ab 61 3e e5 9f cf bc
       0.015532988 0.1168244 0.220382 -0.025344798
0002f0 ac f7 c4 bc dd da 96 bd aa 9b 2e be 2b 3b 57 be
       -0.02404388 -0.073659636 -0.17051569 -0.21018665
000300 7f 99 90 bd 0d d9 eb bd 25 fe 42 be 75 68 a7 3c
       -0.07060527 -0.115160085 -0.19042261 0.020435551
000310 d0 ff 1c 3e cd 2d 62 bc 9e 0b 4f 3e 5e e8 64 bd
       0.1533196 -0.013804865 0.20219275 -0.055885665
000320 07 9f 1f be b7 07 26 3d 0c 24 ec 3c 98 96 19 be
       -0.15588008 0.0405347 0.028825782 -0.14998853
000330 7d d2 0f be 4e 9c cd bd 11 09 89 3d 45 c8 2b be
       -0.14045139 -0.100395784 0.066911824 -0.16775616
000340 e3 9d 26 3d d4 32 4d bd df 62 2a 3e f4 cf 91 3d
       0.040677916 -0.0500973 0.16639279 0.07119742
000350 6f 7d 13 3d 38 7b ee 3d 2f e5 28 be ca 5a 97 3c
       0.036008295 0.11644596 -0.16493677 0.018475909
000360 a5 b0 1c 3d 6b 35 32 3e 02 29 1d be 20 f4 16 be
       0.0382544 0.1740319 -0.15347674 -0.14741564
000370 b1 dd 4d 3e d1 fe 44 3e b0 49 9d 3d ea f3 19 3e
       0.201041 0.1923783 0.076800704 0.15034452
000380 d5 2a 31 be 08 5f 3e be 91 c4 7a 3d 08 2a 0f 3e
       -0.17301495 -0.18590939 0.061222617 0.13980877
000390 dc c5 49 3e 9d c4 3e 3e 09 28 de bd b9 59 c1 bd
       0.19704384 0.1862969 -0.1084748 -0.09440941
0003a0 e1 46 f9 3d 60 27 53 be 18 27 01 3e 56 28 76 3c
       0.12171722 -0.20620489 0.1261257 0.015024265
0003b0 9f 9a 18 3e 8a 9f 03 be 71 fb 8e bd e1 e0 9b 3c
       0.14902733 -0.12853828 -0.069815524 0.019028129
0003c0 f3 44 61 bd 7a 52 bd 3d b7 2c 09 be 52 12 fb 3d
       -0.054997396 0.09244247 -0.13395964 0.12259354
0003d0 0f fc 11 be 7f 9d 07 bd 43 5c 87 bd ec 8e ab 3d
       -0.14256309 -0.033109184 -0.066093944 0.083768696
0003e0 7c 54 31 be 44 26 ad bc 1f de c5 bd a3 c1 c7 3d
       -0.17317384 -0.02113641 -0.09661507 0.0975373
0003f0 c9 5c 42 3d c6 10 a7 3d 85 8e d3 bd 8b dd 85 bc
       0.047451768 0.08157496 -0.10329918 -0.016340991

fc.weight f4 [3, 64]
000000 96 1b b0 bf a5 d5 82 3f 6a d6 32 3e ba 0f fe bd
       -1.3758419 1.0221449 0.17464605 -0.12405343
000010 5d 26 12 40 e3 86 a1 3e cb e9 45 3d 27 e6 31 3d
       2.2835915 0.31548223 0.048318665 0.04343238
000020 50 ec 41 be 20 60 87 c0 c4 75 ba bc b4 2d 0e c1
       -0.18937802 -4.230484 -0.022761233 -8.886158
000030 28 e6 fd 3d c7 75 67 be d9 1f fe 3f 17 2e 29 3e
       0.123974144 -0.22603522 1.9853469 0.16521488
000040 66 a7 b5 3d d7 c1 11 c0 a5 c8 00 3e 0d 81 9f 3e
       0.08869819 -2.277456 0.1257654 0.31153145
000050 07 9c b2 bc bc 24 4d 3d bd 11 95 3d 5e 8f 18 c0
       -0.021802915 0.05008386 0.07278774 -2.3837504
000060 65 c1 4f 3f 98 11 6d bd 2a 92 28 3f a0 05 a8 3f
       0.8115447 -0.057878107 0.6584803 1.3126717
000070 d7 09 13 3f 31 4c a5 3d 28 d1 d1 3e 48 0b 98 3e
       0.5743689 0.08071173 0.40979886 0.29696107
000080 10 e1 a8 3f b5 c4 c7 bf 61 0d 72 3f 4c da fc 3e
       1.3193684 -1.5606905 0.94551665 0.49385297
000090 4b 85 af 40 27 38 cc bf 04 ed b1 3d ab 90 f5 ba
       5.485021 -1.5954636 0.08687785 -0.0018735131
0000a0 45 d3 b2 40 8b cc e5 40 91 ad 32 3e 64 77 33 3d
       5.5882897 7.1812186 0.17449023 0.04381503
0000b0 d0 20 7d bf 7a 2c ea bf 73 7e be c0 31 23 75 bd
       -0.9887819 -1.8294823 -5.9529357 -0.059848014
0000c0 62 c1 6b be a7 87 3e 3d df 6b 7b bf a8 83 63 40
       -0.23022988 0.046516087 -0.98211473 3.5549107
0000d0 80 e4 8d 3f a4 1f 93 c0 77 8f 1e 40 45 65 b1 bf
       1.1085358 -4.5976124 2.4775064 -1.385903
0000e0 b1 da a7 bf 32 3d ea 3c d0 9c 84 bd 3d df 07 bf
       -1.3113614 0.028593633 -0.06475222 -0.5307501
0000f0 ea 93 87 bf 5e 1a 1c 3e e6 d7 0b bf 1c b3 bb bd
       -1.0592015 0.15244433 -0.5462631 -0.09165022
000100 b2 c1 cb 3f ff 13 87 bd 6e cd cf be 1e a2 ab 3d
       1.5918486 -0.06595611 -0.40586418 0.08380531
000110 35 95 8e c0 93 20 57 bf 0f 91 be bc c1 77 42 3c
       -4.4557137 -0.8403408 -0.023262529 0.011869372
000120 24 48 49 bf d8 9b a5 c0 28 fc 04 3d ef e3 88 40
       -0.786257 -5.175274 0.032467037 4.277824
000130 64 53 ee 3b 02 16 12 40 96 6d b4 3e d0 e4 2a bf
       0.0072731245 2.2825933 0.35239857 -0.6675539
000140 66 c3 3e be c3 e3 df 3f d3 0b 64 40 0a ac 44 be
       -0.18629226 1.7491382 3.5632217 -0.19206253
000150 98 9c 98 bc b0 d3 f1 3e ef ec 77 3d 6d 8b 04 40
       -0.018629357 0.47231817 0.06052869 2.0710099
000160 24 92 9a bf 73 0a ae c0 e6 37 b0 be 2c 75 c2 c0
       -1.2075849 -5.4387755 -0.34417647 -6.076803
000170 b2 f3 05 c0 84 f3 03 be f8 d5 0e 3f e1 20 4f bf
       -2.092999 -0.12885863 0.5579524 -0.80909544
000180 b0 f9 8d bf 09 71 b6 3e 9c 03 05 3f 27 12 a6 3f
       -1.1091824 0.35633114 0.5195863 1.297429
000190 a5 c5 6b 3d b8 fc cd 3f be 40 e7 bc d4 10 28 40
       0.057561535 1.6092749 -0.028229114 2.626027
0001a0 9e 94 29 bd cb 59 e9 bf 70 5b c1 bd 72 ee b2 3d
       -0.041401498 -1.8230528 -0.094412684 0.08736886
0001b0 95 58 e6 3f 10 36 07 c1 ab fa e2 3f 7f 51 36 3e
       1.7995783 -8.450699 1.7732748 0.17804526
0001c0 c8 6a f6 3f 1a 32 15 3d 15 3d a6 bf 3f d5 c8 bf
       1.9251337 0.036424734 -1.2987391 -1.5690078
0001d0 f5 8c 2b bf 7c 6f 8d 3f c9 47 77 3f 91 0c 0a 3f
       -0.6701196 1.1049647 0.9659391 0.53925425
0001e0 c6 23 d7 3f 24 fa 20 bd af c8 6a bd 10 95 cc 3f
       1.6807792 -0.039301053 -0.057320293 1.598299
0001f0 1e ae 8b 3f 88 6a 41 3b b8 78 5a 40 c5 68 ae bf
       1.0912511 0.002951296 3.413618 -1.3625723
000200 57 30 88 3f a8 64 88 bf 97 cd 59 bd f3 9a 7a bd
       1.0639752 -1.0655718 -0.05317458 -0.061182927
000210 c2 7f 95 bf 83 1b 3f bb 16 97 1f 3e 14 3b 76 bd
       -1.1679614 -0.0029160685 0.15584978 -0.060114935
000220 ff 94 ae 3e 0c 4b cb 40 98 8e 4e 3c a3 7c e0 40
       0.3409805 6.352911 0.012607239 7.0152144
000230 3a 1f f8 3c a2 16 a7 be 47 78 f8 bf 50 e2 61 3e
       0.030288327 -0.32634455 -1.9411706 0.22058988
000240 2a b3 8c bd 1f b7 56 3f d4 54 80 bf c8 3a a8 3d
       -0.0687011 0.8387317 -1.0025887 0.08214337
000250 84 19 8e 3d 1e 88 58 be 56 ad 83 3c 4c b6 07 3f
       0.069384605 -0.21145675 0.016073864 0.5301254
000260 7b be 17 be a2 83 1f 40 e7 51 4a 3d 84 55 f1 3e
       -0.14818756 2.4924092 0.049394514 0.47135556
000270 53 59 95 bd f0 c6 fe bc 2e bd 06 bf a7 09 78 3d
       -0.07292428 -0.03110072 -0.52632415 0.06055608
000280 44 e5 44 bf 5e 17 e0 3f d3 64 97 bf 6f 05 62 bf
       -0.7691233 1.7507131 -1.1827644 -0.8828954
000290 4e e0 a0 c0 c2 c0 9a 3f ec 7c f4 3d 80 93 1b bf
       -5.027381 1.2090075 0.119378895 -0.6077194
0002a0 aa 28 47 c0 00 9c 92 c0 dd ed 3b 3d 02 12 f2 3d
       -3.111857 -4.581543 0.04588114 0.11819841
0002b0 ab 32 a5 3d 8b 0e 80 40 93 d8 2b 40 e7 a0 4d 3c
       0.08066305 4.0017753 2.6850936 0.012550569
0002c0 3b ec d1 be cf 8e 82 bd e5 62 bf 3f 9a 2b 24 c0
       -0.41000542 -0.06374895 1.4952055 -2.5651612
0002d0 03 88 fd be 0a f9 66 40 ef 48 54 c0 fc 6a 84 3f
       -0.4951783 3.6089501 -3.3169515 1.0345149
0002e0 51 63 35 3f 34 20 83 3d b3 86 ff bd ee 13 c4 bb
       0.7085467 0.06402627 -0.12476864 -0.005983821
0002f0 d7 55 13 3f 8c e6 77 3c ee f2 af bf a8 d5 09 3f
       0.57552856 0.01513065 -1.3746011 0.5384164

fc.bias f4 [3]
000000 a8 cf b5 3d 84 e7 9b 3d 8c 3f bf 3d
       0.08877498 0.076125175 0.093382925
