task 3/gnn_model_new_l5.pt (torch, 268415 bytes, 12 tensors)

conv1.bias f4 [64]
000000 80 fb 75 bd 91 c5 10 bd 65 4a 77 bd 00 00 00 00
       -0.060054302 -0.035344664 -0.060373683 0.0
000010 59 31 3f bd d2 8b a3 3d fc fb 75 bd cd fa 75 bd
       -0.04667792 0.07985653 -0.060054764 -0.060053635
000020 f2 fb 75 bd b6 a9 91 be 94 d1 75 bd e2 fb 75 bd
       -0.060054727 -0.28449792 -0.060014322 -0.060054667
000030 5c 93 74 bd 00 00 00 00 00 00 00 00 a8 ea 75 bd
       -0.059710845 0.0 0.0 -0.06003824
000040 9e a3 65 bd db fb 75 bd e3 20 0d bd 99 63 75 bd
       -0.05606424 -0.06005464 -0.03445519 -0.059909437
000050 e7 4c 3b bd fd fb 75 bd 1a db 73 bd 2a 59 5a bd
       -0.045727637 -0.060054768 -0.059535123 -0.05330769
000060 53 3e 76 bd 77 f9 75 bd d1 e4 53 be 00 57 18 3e
       -0.06011803 -0.06005236 -0.20692755 0.14876938
000070 8b fa 75 bd c2 fb 75 bd 21 7e d5 bb 4a c4 75 bd
       -0.06005339 -0.060054548 -0.00651528 -0.06000165
000080 70 c6 7c bd 0b 8d 75 bd c8 fb 75 bd 9f cc 75 bd
       -0.061712682 -0.059948962 -0.06005457 -0.060009595
000090 ae d6 45 bd 7c f8 75 bd 4d 2a 0c be ef fb 75 bd
       -0.048300438 -0.060051426 -0.13688011 -0.060054716
0000a0 84 fa 75 bd 00 00 00 00 b6 70 6d bd 00 00 00 00
       -0.060053363 0.0 -0.057968818 0.0
0000b0 00 00 00 00 39 20 3f bd e7 87 ad bd 00 00 00 00
       0.0 -0.04666159 -0.08473187 0.0
0000c0 99 55 52 be 9d e7 75 bd e3 0d 5c bd c1 fb 75 bd
       -0.20540465 -0.060035337 -0.05372418 -0.060054544
0000d0 38 fb 75 bd 06 ad b8 bc a7 9f 39 be 00 00 00 00
       -0.060054034 -0.022543442 -0.18127309 0.0
0000e0 6b cd 74 bd f3 83 b0 bd b0 8a 3d bd 00 00 00 00
       -0.059766214 -0.08618917 -0.04627484 0.0
0000f0 74 07 76 bd 87 8f 65 bd f3 5c 7b 3e 85 6a 33 3e
       -0.0600657 -0.05604508 0.24547176 0.17521103

conv1.lin.weight f4 [64, 768]
000000 b3 e8 9b bd 24 95 f0 bd ec 33 97 bd d0 a1 29 3d
       -0.07612743 -0.11747196 -0.0738295 0.041414082
000010 73 5c 32 3d 9d 55 e6 bd 47 cc a2 bc 50 83 99 3c
       0.043545198 -0.11246798 -0.019872798 0.018739372
000020 93 fc 67 bb 04 30 cf 3d b7 4e 83 bb 64 c5 ee bd
       -0.0035398349 0.1011658 -0.0040071863 -0.11658743
000030 12 d4 72 bc 4d 55 47 3c 61 fc 0a 3e 9a 4f 89 3c
       -0.014821069 0.012166333 0.13572837 0.01676159
000040 fc 85 97 bc 2e 6d 82 bc 06 cd d1 3d e6 48 e3 3d
       -0.018496506 -0.015921202 0.10244183 0.11097889
000050 b0 f8 5d bd 55 e0 bf 3c 2f 61 9b bc 61 bf 32 bb
       -0.054192245 0.0234224 -0.01896724 -0.0027274715
000060 8c a6 9a bc 00 65 15 3d 21 58 86 bd 3c 7e 9c bd
       -0.018878244 0.036473274 -0.06559778 -0.07641265
000070 8c f2 e2 3c 6c 21 1a bd a1 63 17 bc 90 52 d1 bc
       0.027703546 -0.03762953 -0.009240062 -0.025552064
000080 2b 0d 34 3d a1 e6 dc 3d 2d 5f 07 3e c6 5b 16 bd
       0.04395787 0.107861765 0.132199 -0.036708616
000090 f7 17 b3 3d 16 83 72 3d 71 ff e9 3d 13 31 b2 3d
       0.08744805 0.059207045 0.11425675 0.087007664
0000a0 7d 17 32 3c 6b 45 a2 bd 2a 45 66 bb d2 eb a1 bc
       0.010869858 -0.07923397 -0.003513644 -0.019765768
0000b0 66 97 a3 bd fc db b1 3d a4 12 04 3e 22 d9 85 bc
       -0.07987861 0.08684537 0.12897736 -0.016338889
0000c0 7b 29 ec 3d 9d ca d2 bd 01 2d 4d bd cd 3e c9 bc
       0.11531349 -0.10292552 -0.050091747 -0.024566079
0000d0 cf b3 0c 3c eb 35 82 bb ec d7 b4 3a db bd 81 bd
       0.008587792 -0.0039737127 0.001379726 -0.0633504
0000e0 aa fd 83 ba 29 5a c9 bd 54 f3 b2 bb be 15 02 be
       -0.0010070105 -0.0983165 -0.005461136 -0.12703606
0000f0 73 e8 10 be fc 21 63 bd 1f 43 e4 bd a7 b5 4b 3c
       -0.14151172 -0.055452332 -0.11145615 0.012433446
000100 bd ac a9 3d 91 5f f5 bd b5 a1 c5 bc bd ce 24 bd
       0.082849 -0.119811185 -0.02412496 -0.040236223
000110 0c ec 93 3d 05 50 5c 3c a0 3d be bc 55 83 0f be
       0.07222757 0.0134468125 -0.023222744 -0.14014943
000120 67 04 fc bd b3 90 11 be dc 24 0c 3b 5a 95 80 3d
       -0.12305527 -0.14215355 0.0021384275 0.062784865
000130 28 9d 8b bd b7 72 a9 3c 03 8d ca bd 21 30 05 bc
       -0.068170846 0.020684583 -0.09890177 -0.008129151
000140 f4 ff 93 3c fa ba 02 3b 1e 52 c3 bc 7b 34 35 3d
       0.018066384 0.0019947872 -0.023842867 0.044239502
000150 ce 05 73 bc 96 02 9d bc 15 70 48 bd 9a 89 ea bd
       -0.014832927 -0.019166272 -0.048935015 -0.11452027
000160 99 fc 97 3c 4c 9d 42 3c fa 3d 38 3c 42 6e 45 3d
       0.018553065 0.011878323 0.011245245 0.048200853
000170 bb db 3a 3d ad 0c 94 3d 0e 09 12 3e f8 aa 0f be
       0.045619708 0.0722898 0.14261267 -0.14030063
000180 84 18 01 3e 12 01 33 3b 5e 3c 99 bd 39 80 a6 3c
       0.12607008 0.002731387 -0.07482217 0.020324813
000190 fb e2 0b 3e 78 3b 95 bc 59 09 3b ba d2 fb a5 bc
       0.13660805 -0.018216833 -0.0007134877 -0.020261679
0001a0 37 7b 0b be dc af f5 3d 11 67 8c 3c ac 7d eb 3d
       -0.13621221 0.11996433 0.01713899 0.114985794
0001b0 0e 9a fc bd 3e 4a ad bd a8 96 a4 bd 1f 49 5a 3d
       -0.12334071 -0.08461426 -0.08036548 0.05329239
0001c0 7a d9 e5 bc b9 52 32 3d 41 5c df 3d 88 a2 8d 3d
       -0.028057802 0.04353592 0.10906268 0.06915766
0001d0 3d a4 25 bc 5c 50 8e bd f8 3c ac bb 26 5e e1 bb
       -0.010109958 -0.06948921 -0.0052562915 -0.0068776784
0001e0 eb 2c d9 bc 81 04 9e 3c 20 59 aa 3a b8 15 67 bd
       -0.026510676 0.019289257 0.0012996532 -0.056417197
0001f0 51 a9 09 3e d9 0a 67 3d e7 6a 77 bb f2 6f 1a bc
       0.13443495 0.05640683 -0.0037752928 -0.009426104
000200 80 bb f3 bd 32 a8 00 3e a8 4f 07 3e 1d 63 14 3c
       -0.11900997 0.12564161 0.1321398 0.009056834
000210 3c 60 ce 3d 4b 2a 44 bd b3 53 16 bd e4 a5 a7 bd
       0.10076949 -0.047891896 -0.036700916 -0.08185938
000220 1d e4 68 bb 72 f0 12 bd dc 01 77 3d 35 53 63 bc
       -0.0035536357 -0.035873838 0.060304508 -0.013874819
000230 98 c2 fe b9 60 c7 0a 3d 43 b1 8e bd 92 3a c5 bd
       -0.0004859164 0.033881545 -0.06967404 -0.09630312
000240 ff 17 bf 3d 1f a5 ea bd 91 b4 13 3e 96 e6 09 3e
       0.09330749 -0.114572756 0.1442435 0.13466868
000250 1f 71 0a 3e 45 6f 13 3e b6 9d 2c bb 5d 2b a6 3c
       0.13519715 0.14397915 -0.002633912 0.02028435
000260 c1 8a 3e 3d 04 9c c7 3b fd 81 89 3d cc 75 b7 3d
       0.046519045 0.0060915966 0.067142464 0.08958015
000270 6b f5 ad bc 4c 3e 32 bc de 20 af 3c a5 3a c1 3d
       -0.021235188 -0.010879111 0.021377977 0.09435014
000280 2e 54 b0 3c d0 b6 28 bd 44 7a d9 3d ca 0b 59 bd
       0.021524515 -0.04118997 0.106190234 -0.05298976
000290 97 54 04 bd e5 b4 ef bb 20 75 a6 bd f0 28 7e bc
       -0.032307234 -0.0073152655 -0.081278086 -0.01551269
0002a0 e4 2b e1 bc 92 f6 9a bb 63 d2 95 bd 48 34 39 3d
       -0.027486749 -0.0047291005 -0.07315519 0.045215875
0002b0 32 e1 72 3d 8f 42 f2 bd bc 75 e5 bd 5b 80 e7 bd
       0.059296794 -0.11829101 -0.11204097 -0.11303779
0002c0 29 a6 eb bd f4 e5 80 bd 8a 37 00 bd 62 87 01 3d
       -0.11506302 -0.0629386 -0.031302966 0.03162325
0002d0 3a 58 5a 3c 07 ef 2d bc d8 94 ba bd a8 6d 03 3d
       0.013326699 -0.010616071 -0.09110421 0.032087
0002e0 4f 74 7e 3b 33 8f 03 be aa d8 0e bd 7a 06 d9 bd
       0.003882665 -0.12847595 -0.034874596 -0.105969384
0002f0 e3 f0 a6 bb 3b 02 74 bd 77 c6 ab bd d3 4b b2 3c
       -0.005094634 -0.05957244 -0.083874635 0.021764671
000300 62 70 ab 3c 4a d3 b0 bd df a4 92 bd 7c 60 ae bd
       0.020927612 -0.0863405 -0.07160353 -0.08514497
000310 6b 1d 38 3d 93 b6 8f 3d 00 3f f0 bd 58 b2 e5 bd
       0.04494993 0.07017245 -0.11730766 -0.11215657
000320 b9 df 1b bb d6 d4 4e 3d 17 bf d7 3d 0f ed c5 bd
       -0.0023784472 0.050495945 0.10534494 -0.09664356
000330 c1 55 da bc a4 bf bb 3d 6c 32 58 bd b6 77 fa bd
       -0.026652219 0.09167412 -0.05278246 -0.12229864
000340 7e f2 fb bb d1 69 a8 3d 32 9c 0a 3e 57 7b 99 bd
       -0.0076888194 0.08223308 0.13536146 -0.07494228
000350 2e 39 e2 bd d0 df ce bd eb 92 bf bd d4 73 1e 3d
       -0.110460624 -0.101012826 -0.09354194 0.03868468
000360 a0 18 d4 3d 0c ac fa bd 4c 46 d2 3d 48 24 1e 3d
       0.10356259 -0.122398466 0.10267314 0.03860882
000370 ef 40 a9 3d 1b 9c 3c 3c 9f 30 15 3d 01 b6 29 3c
       0.08264338 0.011511828 0.03642332 0.0103583345
000380 1b 7d ed bd b1 2b 26 bd c2 56 e6 bd 8c 5d 01 bc
       -0.115961276 -0.04056901 -0.112470165 -0.0078958385
000390 28 45 0c be 2f bb b2 3d 92 ac ef bc 37 f0 97 bc
       -0.13698256 0.08727109 -0.029257093 -0.01854716
0003a0 72 f5 89 3d 00 14 3b 3d 35 23 eb 3d 8c 54 c3 3c
       0.06736268 0.04567337 0.114813246 0.023844026
0003b0 91 9c fa bd b3 fe 8f 3c 06 88 41 3c 65 50 0c bd
       -0.12236894 0.017577505 0.011812216 -0.034256358
0003c0 49 86 51 3c 73 4b ed bb b1 54 02 be cd 7e 64 bc
       0.012788364 -0.0072416603 -0.1272762 -0.013946247
0003d0 55 ad a3 3d 5d 57 d9 bd 8b c7 11 be 06 19 c7 bd
       0.07992045 -0.10612366 -0.14236276 -0.0972157
0003e0 c0 52 e8 3b 59 a9 03 be ac ec 9e 3b 04 c5 15 3c
       0.0070899427 -0.1285757 0.004849991 0.0091412105
0003f0 b3 fd dd b9 b4 ab cb bc 2b 3a 4e 3d b3 ae a7 3c
       -0.00042341425 -0.024862148 0.050348442 0.020469045

conv2.bias f4 [64]
000000 cc 6e 81 bd cc f7 1b 3d 39 7a 9c 3e a3 38 8f be
       -0.06319961 0.038078114 0.30561998 -0.27972898
000010 37 e6 5e bf a7 1a d6 be 3a a3 ad bd f9 4f 92 be
       -0.8707003 -0.4181721 -0.084783986 -0.2857664
000020 68 d0 f7 3e ce 71 56 be 1f 4e 30 bf 3a f0 95 be
       0.4840119 -0.2094185 -0.68869203 -0.2928484
000030 71 5b 29 be 47 26 d8 be 59 18 d3 bd 5f 73 10 be
       -0.16538788 -0.42216703 -0.10307378 -0.1410651
000040 72 c6 b7 bd eb b6 2a bf 2a bc ea bc ce 1a 2f be
       -0.08973397 -0.6668536 -0.028654177 -0.17100069
000050 d8 c8 ee be 78 97 01 be ad b6 8b be 3e 9a 72 be
       -0.46637607 -0.12655437 -0.27287808 -0.23691651
000060 0e a5 84 3e e2 c6 aa be 95 f8 0a be 32 ed 8e bd
       0.25907177 -0.3335486 -0.13571389 -0.06978835
000070 42 6a 09 bf 09 bd 87 be e0 a3 ef 3e f2 2a 29 be
       -0.5367776 -0.2651141 0.46804714 -0.16520289
000080 9f da 91 be 4c 13 ba 3f fd f8 75 bd 10 ba 0a bd
       -0.28487107 1.4537139 -0.060051907 -0.03386885
000090 cc d7 a9 be 91 e0 56 be 07 65 15 3d 14 7e 9b be
       -0.33172452 -0.20984103 0.0364733 -0.30369627
0000a0 b3 be 9d be 51 55 9b be 7c 83 93 be b9 61 c4 bf
       -0.30809554 -0.3033853 -0.28811252 -1.5342323
0000b0 0f e8 06 3f f9 8c 34 bf 32 67 4a be e6 2c c7 be
       0.52697843 -0.7052761 -0.19765928 -0.38901442
0000c0 7d 4a a5 bd 53 2a aa bd ce b9 b2 3e 68 8a fb 3e
       -0.08070848 -0.08308854 0.34907383 0.49129033
0000d0 2e fc 75 bd a1 a0 3a be 2a b5 1a bf e3 21 1e be
       -0.06005495 -0.18225338 -0.60432684 -0.15442614
0000e0 fa a8 b2 be 4f ea 4d be b7 b2 07 3e 74 04 e7 bd
       -0.34894544 -0.20108913 0.13251768 -0.11280146
0000f0 b2 87 9a 3e 1d f2 75 bd fe 2c 08 3f 13 2e a2 3e
       0.30181652 -0.06004535 0.5319365 0.31675777

conv2.lin.weight f4 [64, 64]
000000 20 5c 05 3e 83 b5 a0 3d 32 18 10 be cc 41 60 bc
       0.13023424 0.078471206 -0.1407173 -0.013687562
000010 5a d3 85 bc 70 5f 8c be 70 38 58 3d 81 3f 62 bb
       -0.016336132 -0.27416563 0.052788198 -0.0034522715
000020 91 14 aa bc 69 12 78 be aa 6e 1f be 8a ea 50 be
       -0.02076176 -0.24225773 -0.15569559 -0.2040197
000030 ab 5f fd bd a7 f2 b6 ba b0 35 9a bd 6e 09 b4 3d
       -0.12371763 -0.0013957814 -0.07529771 0.08790861
000040 9a e1 ec 3d 4d 7a 8b be 1c 26 53 be f3 77 d6 3c
       0.115664676 -0.27241746 -0.20620006 0.026180243
000050 d3 ad 36 3c 60 95 46 be fd 3d d4 3d 84 33 84 bd
       0.011149841 -0.1939292 0.10363386 -0.06455138
000060 cb 01 49 bc 06 e4 c2 3d 27 25 62 be 11 fe d1 bd
       -0.012268494 0.09516148 -0.22084485 -0.102535374
000070 ce 6c 48 bd a8 57 b2 3d c2 b9 8a be 5b 2c 91 bd
       -0.04893189 0.08708125 -0.27094847 -0.07088538
000080 62 76 43 be 88 d4 89 bc 42 bb 82 bc da 02 f5 bd
       -0.19088128 -0.016824976 -0.015958432 -0.119634345
000090 b5 8b 2c be 85 b9 13 be 9b c1 57 be ba 30 28 be
       -0.16850169 -0.14426239 -0.21069948 -0.16424838
0000a0 73 ba 85 3d bd d6 31 bd 0f 09 19 be a8 cb 41 be
       0.06529703 -0.04341768 -0.14944862 -0.18925345
0000b0 4c fc 54 3e 17 8a 55 bc 3c 9c 0c 3d 45 f8 ef 3c
       0.20799369 -0.013033411 0.034328684 0.029293189
0000c0 1c a5 52 be fd 47 79 be 2e 18 9d bd fa 97 74 bc
       -0.20570797 -0.24343868 -0.076706275 -0.014928812
0000d0 95 5e 00 be f1 78 78 be 2b fa 84 be 83 41 8a 3d
       -0.1253608 -0.24264885 -0.25972113 0.067507766
0000e0 f1 01 43 3d 5c 0c cc 3d e6 2c 03 bd 5e 54 86 3d
       0.047609273 0.09963295 -0.03202524 0.065590605
0000f0 1d 93 1e 3e 5a 9e 2f be ce 5f 15 be 56 a8 cc 3d
       0.15485807 -0.1715025 -0.14587328 0.09993045
000100 8f 80 ed bc df 72 2b 3e 88 02 3d bd 7d 3b 1c be
       -0.028991966 0.16743039 -0.046144992 -0.15257068
000110 f7 19 7c bd 01 ed ae be 2b a6 88 3e 58 0b 51 3e
       -0.0615482 -0.34165195 0.26689276 0.20414484
000120 ec 81 01 be 07 76 a7 be f5 9a 09 be 21 6c 93 3d
       -0.12647218 -0.32707235 -0.13438018 0.07198358
000130 bc a1 0e 3d fe 53 15 be 0a 7a 1b be 35 d0 c3 3d
       0.03482221 -0.14582822 -0.15183273 0.09561197
000140 90 56 00 be cc 97 75 3e b9 a1 8a bd ce 87 88 3e
       -0.12533021 0.23983687 -0.067691274 0.2666611
000150 82 3c 04 be 3c d2 0f 3e f3 eb 54 3d 60 93 7c 3f
       -0.12913707 0.14045042 0.05198283 0.98662376
000160 52 1c 9e bc bc 1b b9 bd c0 34 36 3f 54 25 2a bf
       -0.019300614 -0.09038493 0.7117424 -0.6646321
000170 46 01 61 3e fa c1 44 3e 9b 30 c6 3d b6 da 4a 3e
       0.21973142 0.19214621 0.096772395 0.19809994
000180 84 84 15 bd eb 7d 16 3e a7 43 82 3e 8f 97 10 3e
       -0.03650333 0.14696471 0.2544224 0.14120315
000190 92 16 c6 3e 01 51 88 3d d4 05 35 3d 0c ca 3c 3e
       0.38689095 0.06656075 0.04419501 0.1843645
0001a0 9a 5c 57 3e 40 cb 39 3e 10 94 02 3e 98 fa 84 bb
       0.21031418 0.1814394 0.12751794 -0.0040581934
0001b0 2f 60 46 be 1c ba 22 be 37 04 73 3d be 6e ca 3c
       -0.19372629 -0.15891308 0.05933019 0.02471101
0001c0 79 35 60 be fc 50 e1 bd a6 e5 81 3e bd 92 0f be
       -0.21895398 -0.11001775 0.2537052 -0.1402082
0001d0 fa c3 46 3d bc c3 89 3e 9e e7 a2 3e 16 b2 1c be
       0.04852674 0.26907146 0.31817335 -0.1530231
0001e0 26 20 e4 bc 01 86 08 3e 6b e4 98 3d 1a 68 31 be
       -0.02784736 0.13332368 0.07465442 -0.17324868
0001f0 41 dd 56 3b 33 cf e7 bd 20 fc 5b 3f 64 8f 06 3f
       0.0032785686 -0.11318817 0.8593159 0.52562547
000200 4f 3b 8b 3d 22 7a a0 3c cc b2 53 be c4 d1 eb 3c
       0.067984216 0.019589487 -0.20673674 0.028786547
000210 0b f7 cb 3d c5 8a 05 3f 34 ff 0e 3e 96 6b fc 3d
       0.09959229 0.5216487 0.1396454 0.12325208
000220 ed f8 93 bd ca ee ee bd 8d 48 54 be 42 a9 a6 3c
       -0.07225213 -0.11666639 -0.20730801 0.02034438
000230 ef fd b1 3e f2 89 13 be 9f fc 91 bd 6a ff 83 be
       0.34764048 -0.1440809 -0.07128262 -0.25780803
000240 0f 1a 9d bd 31 03 35 3d 2c f3 2f 3e dc 4a 0c 3e
       -0.07670986 0.044192497 0.17182606 0.13700432
000250 bd aa d0 bd 4c 9b 19 be 88 b4 d3 3d f3 ab e5 be
       -0.10188816 -0.15000647 0.10337168 -0.4485775
000260 55 6c 09 3e 0e aa 75 3d f2 3c d9 bd ee 47 2c 3f
       0.13420232 0.05997663 -0.106073275 0.67297256
000270 22 0b 2f 3d 87 53 0b 3e 86 9e d7 bf 2c 7e 62 bc
       0.042735226 0.13606082 -1.6845253 -0.013824027
000280 c6 42 61 3e ad fb f7 3d 13 2e 04 be 10 e5 26 be
       0.21998128 0.1210855 -0.12908201 -0.16298318
000290 20 f1 1a 3e 8e 44 af bd 96 8c 74 3e f5 38 53 be
       0.15131044 -0.08557998 0.23881754 -0.20627196
0002a0 81 41 0d be a1 e9 1b 3e 43 41 c5 bd f5 8e aa 3d
       -0.13794519 0.15225841 -0.09631588 0.08328048
0002b0 3c f4 b6 bd 6e e6 72 bc c0 a3 a9 bd 1d e0 25 3e
       -0.08933303 -0.0148254465 -0.08283186 0.16198774
0002c0 76 1c c1 3e 9e fd 3a be 32 1d b6 3d 49 cc b0 bd
       0.37717026 -0.1826081 0.08892287 -0.08632714
0002d0 82 3a 97 3d e5 b8 0c be 3d 1a 84 bc b2 d9 4a 3e
       0.07384206 -0.13742407 -0.016125793 0.19809607
0002e0 ff 23 a7 3c 3e 3f 92 bd bf 03 50 3e e7 eb ff bb
       0.020402906 -0.07140969 0.20313929 -0.007810104
0002f0 16 e0 0e 3e e4 86 3e 3e 38 e1 80 3e d0 be 4a bd
       0.1395267 0.18606144 0.25171828 -0.04949838
000300 cc 85 26 bd 36 5a 32 be f3 1c a9 3d be e6 34 be
       -0.040654942 -0.17417225 0.08257475 -0.17666146
000310 d4 33 aa bd dc cf c2 be c4 f1 90 3d 81 51 60 bc
       -0.08310667 -0.3804921 0.07077363 -0.013691307
000320 66 68 7a 3d 36 23 0a bd 8a e8 28 bd 2f 41 3d be
       0.06113472 -0.033724986 -0.04123739 -0.18481897
000330 dc b6 5e bd fa d6 09 be 4d fa 0e 3e 26 e3 26 be
       -0.054373607 -0.13460913 0.1396267 -0.16297588
000340 be 08 2a bc 8d 54 5c 3d 45 35 5d 3d d6 43 c3 3c
       -0.010378061 0.05379157 0.05400588 0.023836058
000350 c1 77 89 3d 1c 74 77 3d c4 17 c3 3d a1 36 fe bc
       0.06712294 0.060413465 0.09526017 -0.031031908
000360 56 a0 6e 3d 08 79 12 be 41 de df 3d f1 3d a7 bc
       0.058258377 -0.14303982 0.109310634 -0.020415278
000370 41 ef 40 bd 10 f0 9d 3d 99 83 cf bd ba a3 f3 3c
       -0.04710317 0.07711804 -0.10132522 0.029741157
000380 5b b3 1a be 45 1f 86 be 0f 0d bf 3d 89 48 08 be
       -0.15107481 -0.26195732 0.093286626 -0.1330892
000390 c3 1b 18 be 7f e2 c8 bd 1a 78 ae bd d8 b5 cd bd
       -0.1485434 -0.09808826 -0.08519001 -0.100444496
0003a0 83 83 65 bd 78 4a d5 3b 22 ee 9c 3d 16 39 bf bd
       -0.056033622 0.0065091215 0.07662608 -0.0933706
0003b0 40 e6 90 bb 19 cf 43 3d c0 51 61 be c8 56 50 be
       -0.004421979 0.047804926 -0.22003841 -0.20345604
0003c0 22 c0 a2 be 95 58 c5 bd bc b0 24 3d 0b 68 86 be
       -0.3178721 -0.09636036 0.04020761 -0.26251253
0003d0 7b 16 14 3e 57 a6 8c be 17 65 94 bd f7 75 9b 3d
       0.144617 -0.27470657 -0.07245844 0.075908594
0003e0 03 42 63 be 7a d7 ec bd 68 f2 94 be 62 36 d7 bd
       -0.2219315 -0.115645364 -0.2909119 -0.105084196
0003f0 5b 50 00 3e fa bc 8f be 8c 2a ff bd dc d1 ef bd
       0.12530653 -0.28073865 -0.12459287 -0.117099494

conv3.bias f4 [64]
000000 5b 85 8c 3e 6e b2 8c be 51 f7 6d be e4 35 7f be
       0.27445492 -0.2747988 -0.23238875 -0.24922901
000010 97 a4 53 be 4f c6 d6 be f7 8a 13 be db 71 f8 3f
       -0.20668255 -0.41948172 -0.1440848 1.9409746
000020 88 13 80 bd 3f cc 36 3f 84 54 90 3d a4 1f 9e be
       -0.06253725 0.71405405 0.0704737 -0.30883515
000030 6c 93 cf 3f 30 25 34 3f c6 24 19 bd ca 60 20 be
       1.6216865 0.70369244 -0.037388586 -0.15661922
000040 2c 8e f0 bd 36 2a 89 3f e4 ff 75 bd 9f 99 76 bd
       -0.11745867 1.0716007 -0.06005849 -0.0602051
000050 f0 0b 64 be 91 a0 d2 be 72 1c 95 be 80 e5 30 be
       -0.22270179 -0.41138127 -0.29123265 -0.17275047
000060 c5 25 8f bd c2 c0 ac bd 9e fb 8e bf 2c fc 75 bd
       -0.06989626 -0.08435203 -1.1170537 -0.060054943
000070 75 68 3c 3e 6a d2 f3 3d b5 0d c6 be 93 c6 84 bd
       0.18399222 0.11905368 -0.38682333 -0.064831875
000080 69 6f 49 bf 68 8e 05 be 8d 31 19 bf 19 0d 7a bd
       -0.78685623 -0.13042605 -0.59841233 -0.061047647
000090 91 fc c0 bc 87 c5 ef 3e 45 06 ff bd c0 89 f6 be
       -0.023557933 0.4683039 -0.12452368 -0.4815197
0000a0 08 09 07 be f8 29 4a bd 8d 13 b8 bd 7a c6 10 be
       -0.13187039 -0.04935643 -0.08988104 -0.14138213
0000b0 fd 9d 82 be e4 cb 0a be 4b 0e 3c bd 8b 46 a2 be
       -0.2551116 -0.1355434 -0.04591207 -0.31694445
0000c0 0e 0e 15 bf 2d b7 a2 be c4 76 9f 3f c2 21 3f be
       -0.5822457 -0.31780377 1.2458119 -0.18665221
0000d0 79 3d 92 be 92 58 df bd d7 f5 12 be 97 b4 2b 3f
       -0.28562525 -0.10905565 -0.14351593 0.67072433
0000e0 9a ec 76 bd c9 90 e9 bd 4c 69 a0 bd 0d de d4 bd
       -0.060284235 -0.11404569 -0.07832584 -0.10393915
0000f0 63 90 bc bd 4e 29 76 bd f7 0b 24 bf e0 d6 ac bd
       -0.09207227 -0.060097985 -0.64080757 -0.08439422

conv3.lin.weight f4 [64, 64]
000000 71 b2 3b be 54 f3 8d c0 6c b5 8d be 4a 62 4c bd
       -0.18329789 -4.435953 -0.27677476 -0.049898423
000010 68 4e 86 be 51 11 e0 3f 95 48 61 3e 71 81 2d 3f
       -0.26231694 1.7505285 0.22000344 0.67775637
000020 ca 5d f7 3e 51 05 13 c0 b7 7a 07 3e ed 7e 30 3e
       0.48313743 -2.2971995 0.13230406 0.17235918
000030 79 2e 2c bd 1a e4 dc 3e 56 53 0f 3e 44 97 4f 3c
       -0.042036507 0.43142778 0.13996634 0.012670342
000040 40 6a 1c 3f 98 4c 4c 3d fd 65 29 3f a3 0d 5a 3e
       0.61099625 0.049877733 0.66171247 0.21294264
000050 b4 be c8 3c b8 8d db bd 24 11 4b 3e 6f 52 b1 3e
       0.024504997 -0.1072039 0.19830757 0.34633204
000060 49 91 09 c0 58 63 03 bf 0f b0 b9 3d 52 60 f0 3e
       -2.1494925 -0.5132346 0.09066784 0.46948487
000070 b5 11 99 bf e4 08 ae 3f 42 f8 39 3e 2d ce 6b bd
       -1.1958529 1.3596463 0.18161109 -0.05756967
000080 f6 ec b4 3e a9 92 02 3e 2c 9d e4 3c 76 f5 da 3d
       0.35337037 0.12751259 0.027906977 0.10691349
000090 49 0c 95 3e 9f 2f b6 be 1b ab 88 bf 06 7c 14 be
       0.29110935 -0.35583207 -1.0677217 -0.14500436
0000a0 7e 87 cf 3e 3c ca 2c bf 62 eb 97 be 6b 6e bc bd
       0.4053306 -0.67496085 -0.2967177 -0.09200748
0000b0 a5 69 93 be 32 e1 10 bf 3a ea 1a 3e 95 d0 3f 3f
       -0.28791538 -0.5659362 0.15128413 0.74927646
0000c0 5f d1 c7 be bd 8d a2 be 8c d2 08 be a4 66 6f 3e
       -0.39026925 -0.31748763 -0.13361567 0.23378998
0000d0 c3 f0 4b bd 33 0d 01 bf 99 b4 c8 be 85 7b f8 3f
       -0.049790155 -0.50410765 -0.39200285 1.9412695
0000e0 a7 6f 12 be ec fb 1d 3c 6b bd f2 bd 24 03 aa 3e
       -0.14300404 0.009642582 -0.11852535 0.3320552
0000f0 cf bb 14 bf 6b 0e e1 3d 80 1c ef 3e 35 48 c1 be
       -0.58099073 0.10989078 0.4670143 -0.37750402
000100 36 ac 4d bd c5 b0 82 3b 0e c4 d9 bd 5f e5 15 bc
       -0.05021306 0.0039883577 -0.106330976 -0.009148925
000110 5a 7a 4e bd bf a3 09 3e eb 6c 0d be f4 79 94 be
       -0.050409652 0.1344137 -0.1381108 -0.28999293
000120 99 37 23 be c9 f5 aa be 03 4b e3 3d 53 15 ca 3e
       -0.15939178 -0.33390644 0.11098292 0.39469394
000130 de 06 35 3e a4 29 dc be 7d c4 f5 3d 36 44 d4 bd
       0.17678401 -0.4300052 0.12000368 -0.10364573
000140 15 ff 68 bd 43 28 ae bd a0 25 d9 be ce 6e 1f bc
       -0.05688389 -0.08503773 -0.42411518 -0.009731008
000150 e6 85 10 be 96 0e b4 3d 18 ab e3 bd f3 f5 b3 bc
       -0.14113578 0.087918445 -0.11116618 -0.021967864
000160 56 a5 2b be a1 f6 a4 bd 5d 6a 88 3d fd 6e 1b 3e
       -0.1676229 -0.08054853 0.06660912 0.15179057
000170 af e5 43 3f 78 de 29 bb 89 6c 5e be 7f 53 3a 3e
       0.76522344 -0.0025919955 -0.2172109 0.18195914
000180 33 ac 87 3d 10 5a 78 bd 72 78 0d be 81 02 4d bd
       0.06624641 -0.060632765 -0.13815477 -0.050051216
000190 85 25 6f be 79 5a 41 3d 0a 34 b7 be 20 67 8e bd
       -0.23354156 0.047205422 -0.3578189 -0.06953263
0001a0 d0 97 38 3e 63 8a 38 be 34 d0 85 bd a6 3e 89 3e
       0.18026662 -0.1802154 -0.06533852 0.2680561
0001b0 3d 1c 03 3e 24 e2 5e 3c 34 ea eb bc 69 72 a8 be
       0.12803741 0.013603721 -0.0287982 -0.32899788
0001c0 22 9a 9a 3d cb 75 8b be e4 d3 8a be 8a 75 52 3d
       0.0754893 -0.27238306 -0.27114785 0.051381625
0001d0 51 1a 80 3e 92 81 f5 3c cf 19 ed bd cc 67 08 3c
       0.25020078 0.02996901 -0.11577188 0.008325528
0001e0 72 7e ff be a0 a7 5d 3e 44 76 06 bf 92 e2 db bf
       -0.49901158 0.21645975 -0.5252421 -1.7178519
0001f0 01 9e c6 be 62 a9 4f 3d 68 4a 9d 3c a8 b6 73 be
       -0.38792422 0.050698645 0.019200519 -0.23800147
000200 98 e9 93 3d 35 59 d3 bd dd a3 e1 3d 36 92 f4 3d
       0.07222289 -0.10319749 0.110175826 0.1194195
000210 96 a1 ec bd d5 c6 b5 bd 52 75 91 bd 07 65 e3 be
       -0.115542576 -0.08875815 -0.07102455 -0.44413015
000220 05 52 aa be 5c 02 19 be b3 92 fa bc d2 84 df 3e
       -0.332657 -0.14942306 -0.03058753 0.4365602
000230 72 22 31 bd a4 e0 95 bd e2 f8 f0 bc 25 ae a7 bd
       -0.04324574 -0.073182374 -0.029415552 -0.08187512
000240 7b 12 1a be c2 42 81 be ec 7d e5 be 32 fc 79 bd
       -0.15046112 -0.25246245 -0.44822633 -0.061031528
000250 14 52 38 3e e9 94 0d 3e 12 10 ab 3d 78 b4 3c be
       0.1800006 0.13826336 0.083526745 -0.18428218
000260 b5 8c b0 be 29 b9 45 be 42 24 8d 3e 46 4b 8a 3d
       -0.3448235 -0.19308914 0.27566725 0.067526385
000270 68 a1 59 3e a4 4c 1c 3f 5c a1 5a be 45 0b 15 3d
       0.21252978 0.61054444 -0.21350616 0.0363877
000280 6f 0f 86 be 7c b1 3d 3e 7e bd 19 3d 2c 14 b0 3e
       -0.2618365 0.18524736 0.03753423 0.3439039
000290 66 20 95 3d 1f 1f 20 3d 60 d8 b4 be b3 8d e3 bd
       0.0728157 0.03909218 -0.3532133 -0.11111011
0002a0 ab dc eb 3d a0 cb 87 3d 30 e1 08 3f 8f 77 88 3e
       0.115166984 0.06630635 0.5346861 0.26653716
0002b0 a5 15 18 3b 56 e2 21 3d 54 5c ff 3d 3f dc 1a be
       0.002320626 0.03952249 0.12468782 -0.1512308
0002c0 f9 b3 d3 bc 99 06 16 bf 63 23 19 3f 76 04 12 3e
       -0.025842654 -0.5860382 0.5981962 0.14259514
0002d0 5d 42 f6 3d 2c 1d 0d bf a7 dd 5c 3f b7 73 a2 3c
       0.120243765 -0.5512264 0.86275715 0.019830568
0002e0 10 90 4a bd e6 50 3d 3e 2a 0a 2a be 6c 09 23 be
       -0.049453795 0.18487892 -0.1660544 -0.15921563
0002f0 4e 44 98 be d6 bd a3 bd ca c8 00 be 87 40 00 be
       -0.29739612 -0.07995193 -0.12576595 -0.12524615
000300 e4 62 f9 bd de 63 9f 3b be 97 2b be 6b ff 8b bd
       -0.12177065 0.0048642 -0.16757104 -0.068358265
000310 3b 78 4c be 86 32 8a be 0b 8b a7 3c 89 71 6d be
       -0.1996774 -0.2699167 0.020452043 -0.23187841
000320 94 b8 af bd 65 05 bd be 62 91 ba bd c5 8c 30 3e
       -0.08580127 -0.36918178 -0.09109761 0.172412
000330 8f cf d6 3d d1 50 b6 3d 31 b2 2f bd ab ae 0f 3d
       0.104888074 0.08902133 -0.042894546 0.035078686
000340 14 c4 47 be 27 c6 2a 3e c5 b5 24 be 45 47 81 bd
       -0.19508392 0.16677152 -0.16084965 -0.06312422
000350 68 20 2d 3e 86 94 9e bd 42 ec aa bd 77 d2 d8 bd
       0.16906893 -0.07743172 -0.08345844 -0.10587018
000360 bf 04 72 be 9f af 11 be 48 84 51 3e ed e1 f9 3d
       -0.23634623 -0.1422715 0.20460618 0.12201295
000370 bd 03 74 3d 70 a8 37 be c3 7b 08 bd 7c 59 a8 bd
       0.059573878 -0.17935348 -0.033321153 -0.08220193
000380 ce ac ea bd 4b 32 59 bc 23 b9 51 bc 58 05 2c 3e
       -0.11458741 -0.01325662 -0.012800488 0.16798913
000390 69 76 27 be 5a e3 11 3e a2 75 23 be f3 4f 36 3e
       -0.16353764 0.14246884 -0.15962842 0.17803936
0003a0 b3 40 cc bd 65 9b b7 3d b1 49 1f 3e 96 9a 64 3d
       -0.09973278 0.08965186 0.15555455 0.055811487
0003b0 e6 21 03 3e 82 e9 4f be b1 1f 0c 3e 8e aa 1c be
       0.128059 -0.2030392 0.13683964 -0.15299436
0003c0 cf db 0b be 59 d6 89 be e4 98 16 bc 41 77 3e 3e
       -0.13658069 -0.26921347 -0.009191725 0.1860018
0003d0 52 85 1d 3e 20 0a 16 be b2 73 f6 bd c6 d1 15 bd
       0.15382889 -0.146523 -0.12033786 -0.03657701
0003e0 37 0b bd be 7a 51 0a 3d 45 c8 18 be 40 46 4d 3e
       -0.3692262 0.03376911 -0.14920147 0.2004633
0003f0 7f f5 29 bd 99 a1 33 3e 22 f4 2e 3d dd 25 e3 bd
       -0.04149389 0.17542113 0.042713292 -0.11091206

conv4.bias f4 [64]
000000 00 f5 80 be 07 8c 5e 3f e6 6a 82 be 24 78 00 c0
       -0.2518692 0.86932415 -0.25472182 -2.0073328
000010 d4 08 c3 be 25 e5 c5 be 21 ae e7 be 15 b9 73 3f
       -0.38092673 -0.38651386 -0.45250037 0.9520429
000020 49 b5 c3 bd ac bb ce be ae c6 35 c0 ca 62 5d 3e
       -0.09556062 -0.40377557 -2.8402514 0.21619716
000030 c7 a0 71 3f 7e 9b 1c 3f 93 5c 83 3e 65 7c 74 3e
       0.9438595 0.6117476 0.25656566 0.23875578
000040 4b 71 a9 bf f3 7f 91 3e 34 fa fa 3f 08 f0 71 bf
       -1.3237699 0.2841793 1.9607606 -0.94506884
000050 a8 08 fb be 9f a3 ea 3d 97 52 86 3e 78 c7 36 bd
       -0.49030042 0.114569895 0.26234886 -0.044623822
000060 e5 f5 10 40 95 22 76 bd b8 a3 82 be 10 2f cc bf
       2.2650082 -0.060091574 -0.25515532 -1.5951862
000070 13 b8 79 3f 9b f7 35 bf 14 f3 cf be 9f f4 61 be
       0.975465 -0.7108094 -0.4061514 -0.22065972
000080 a1 35 c8 be 33 1d 0b c0 1d f8 48 be a2 73 d3 3f
       -0.39103416 -2.1736572 -0.19625898 1.6519663
000090 1b 2d cc 3e cb e2 7c be b4 62 08 bf 7c 7b 7a c0
       0.39878163 -0.2469589 -0.5327561 -3.913787
0000a0 a9 ba 10 c0 c8 46 4f bf a3 24 f8 bd 34 cc 17 3e
       -2.2613928 -0.8096738 -0.12116363 0.14823991
0000b0 97 21 ce 3e 79 fb 50 bf ee 4e 52 3f 20 a9 fd 3f
       0.40260002 -0.81633717 0.8215169 1.9817238
0000c0 62 c8 d2 bf fc 57 f6 bf 14 c0 1e 3f 96 7e 98 3f
       -1.6467402 -1.9245601 0.6201184 1.1913631
0000d0 37 c0 49 3f 57 6d 0c bf 28 47 8a 3f 0d 42 1d bf
       0.7880892 -0.5485434 1.0802965 -0.6142891
0000e0 e8 b7 3f bd 95 99 b5 be 4f 90 54 3f 12 c9 8d bd
       -0.046806246 -0.35468736 0.830327 -0.06923117
0000f0 67 c4 be bd 89 83 ab 3e ec 9c 2a c0 fd e4 04 3e
       -0.093148045 0.3349879 -2.6658278 0.12977977

conv4.lin.weight f4 [64, 64]
000000 0b aa 74 be 84 55 b8 be 23 97 f5 bd 0c cc be 3b
       -0.23892991 -0.36002743 -0.11991718 0.005822664
000010 ad 75 72 be 25 04 fa 3e b3 00 38 be 12 12 ee be
       -0.23677702 0.48831287 -0.17969017 -0.46498162
000020 db df 28 be 88 41 66 be 62 81 bb be 8a 81 e2 3e
       -0.16491644 -0.22485936 -0.3662215 0.44239455
000030 f8 1a c2 bc 75 3c 03 bf b3 83 eb 3d 93 24 96 3d
       -0.0236945 -0.51264125 0.11499729 0.07331195
000040 03 dd 5f be a8 ec 84 be e9 68 87 be bc e9 90 bd
       -0.21861653 -0.25961804 -0.26447228 -0.07075831
000050 2d 2f e4 3d 6f 8e 71 be 14 c4 29 3c d3 6d 4f be
       0.111418106 -0.2358949 0.01036169 -0.20256738
000060 a0 21 3b 3e 32 cc cc 3d be e0 53 be 12 4b 5c be
       0.18274546 0.09999885 -0.20691201 -0.21513012
000070 8b 17 07 bf 5f a3 1b 3e bd 28 c9 bc fc fd 0a bd
       -0.527703 0.1519904 -0.024555558 -0.033933625
000080 a3 1d 9f be 00 5d b5 3d 98 5a 8d be 89 b0 05 be
       -0.310773 0.08855629 -0.2760818 -0.13055624
000090 eb b4 31 3c 7f 00 20 bf 03 70 72 bd ca 91 95 be
       0.010846357 -0.62500757 -0.059188854 -0.2921279
0000a0 42 a6 84 bd 63 5d 1f be 73 f3 05 ba fa bf 04 3d
       -0.06477024 -0.15562968 -0.0005109824 0.032409646
0000b0 ac 90 0b 3e 04 49 f2 3d 8c a3 34 be 47 53 9f 3e
       0.13629407 0.11830333 -0.17640513 0.31118223
0000c0 62 be 60 3f a2 1e f3 bd a1 8c f2 3d c3 20 97 bd
       0.877905 -0.11871077 0.11843229 -0.07379296
0000d0 8d 90 00 3e 3a d1 7b 3d 33 6d 09 3d 42 06 e7 be
       0.12555142 0.06147883 0.033551406 -0.45121962
0000e0 67 f5 b0 bd 18 1e d7 bd d7 46 25 be 22 36 1f be
       -0.08640557 -0.10503787 -0.16140305 -0.15547994
0000f0 e3 3a f1 bd 41 b3 22 3e 4b 80 81 bd b8 94 af bd
       -0.1177881 0.15888692 -0.06323298 -0.08573288
000100 2f 4a c9 bf 10 31 57 3d af cc ed 3d 70 9d 51 be
       -1.5725764 0.052537024 0.11611306 -0.20470214
000110 48 99 98 bd a0 72 85 3e db c2 b5 3d 52 b9 d8 be
       -0.07451111 0.26064014 0.08875056 -0.42328888
000120 fb c1 3e bd 1e b1 99 3f ed a2 4c bf 35 90 f5 bc
       -0.046571713 1.2007177 -0.79936105 -0.02997599
000130 9a 5c 14 bf 09 62 f8 be 3e 00 9a be 83 38 f4 bd
       -0.579538 -0.48512295 -0.3007831 -0.11924841
000140 2a f6 e2 3d 1f c1 a3 bf 1f 20 f1 3c f0 3c b7 bd
       0.11082108 -1.2793311 0.029434262 -0.0894717
000150 a2 49 76 be be b2 83 3f a9 92 50 bd 47 3f 5d be
       -0.24051526 1.0288923 -0.050921116 -0.2160617
000160 13 ed 88 be 56 09 48 be 4f 71 4f bf 03 8b 3f be
       -0.26743373 -0.19534811 -0.8103227 -0.18705373
000170 4b 4f 45 bf 9a 00 26 3f bb cb c3 be 84 21 19 be
       -0.77074116 0.6484467 -0.38241372 -0.14954191
000180 a9 2b b1 be b8 e2 c4 3d 9d da 63 3f b4 c6 ce bd
       -0.34603623 0.09613556 0.8900545 -0.10096493
000190 f7 0f 31 bf 7d e7 77 bf aa a2 c7 3d ff d9 27 3f
       -0.69164985 -0.968376 0.097478226 0.6556701
0001a0 e1 ba d5 3e b9 ae e9 bd d1 12 8b 3e 36 6c 3e be
       0.4174414 -0.11410279 0.27162793 -0.18595967
0001b0 86 0c c9 bb 15 96 91 bf 94 d2 27 be c2 8a dd 3d
       -0.006135526 -1.1373926 -0.16388923 0.108174816
0001c0 30 03 a5 bd 23 e5 c1 3d c0 ad 49 3e a7 62 89 bc
       -0.080572486 0.094675325 0.19695187 -0.016770674
0001d0 6c ce be 3d 21 0d 22 3e 74 8d fb 3d b0 96 75 c0
       0.093167156 0.15825321 0.122828394 -3.8373222
0001e0 94 43 76 be 94 61 53 be 27 cd 10 3e 31 bd 8d 3d
       -0.24049217 -0.20642692 0.1414076 0.06920851
0001f0 bd 22 83 bd 02 98 d1 3c b5 55 41 be 19 58 05 3e
       -0.0640311 0.025585178 -0.18880351 0.13021888
000200 d5 d0 b3 be dc 4c b0 3b 9d 8a ac bc 7e 35 3f 3e
       -0.35120264 0.005380256 -0.02106219 0.1867275
000210 56 53 e2 bc c2 6e cb 3d 87 30 b9 bd 7b 99 32 be
       -0.027627628 0.09933235 -0.09042459 -0.1744136
000220 40 e0 14 be bc c7 45 bf 64 37 29 be a2 b6 0e bf
       -0.1453867 -0.77257895 -0.16525036 -0.55747426
000230 a5 b3 0f be fa 16 b8 be be 16 58 be cd 22 13 3c
       -0.14033373 -0.3595503 -0.21102425 0.008980465
000240 52 44 f2 3d e3 78 b1 be b3 e3 82 3e 33 26 05 3e
       0.11829437 -0.34662542 0.25564346 0.13002853
000250 a1 9b 12 bd 75 d2 79 3e db 93 1d 3e 70 f1 8c 3e
       -0.03579295 0.24396689 0.15388434 0.27527952
000260 c8 ca 0e 3e 86 e1 32 be e8 34 48 bb e6 96 02 3e
       0.13944542 -0.17468843 -0.0030549113 0.12752876
000270 60 6f 92 be 9c f0 43 bf ce 9c 04 be f5 8c 11 be
       -0.28600597 -0.76539016 -0.12950441 -0.14213927
000280 83 46 a1 be 6d 45 13 be 35 07 89 be 90 29 09 be
       -0.3149911 -0.14381953 -0.2676331 -0.13394761
000290 85 ec 68 bf 80 07 87 be b3 15 14 3e 0d 2c 9c be
       -0.909859 -0.2637291 0.14461403 -0.30502358
0002a0 81 b3 85 bd e6 b1 19 bd 2c 0d 5f 3e 4b 07 4f be
       -0.06528378 -0.037523173 0.21782368 -0.20217626
0002b0 b7 76 49 3e 4e 6a 52 3d 33 f8 85 3d 35 f0 0e 3e
       0.19674192 0.05137091 0.06541481 0.13958819
0002c0 73 fb 8e 3c d1 ac 99 bc 56 ae 07 be 51 1f b0 3d
       0.017453885 -0.018759163 -0.13250098 0.08599723
0002d0 a4 e3 c1 3d a8 a8 50 bd a8 02 5d 3d 66 fc a1 bd
       0.09467247 -0.050942093 0.05395761 -0.07909469
0002e0 01 c7 07 3e 82 c9 b7 3d 44 a0 bd bc fa 3e 33 bd
       0.13259508 0.089739814 -0.02314771 -0.04376123
0002f0 0c 82 83 3d 30 3f a4 3d d9 56 39 3d 04 70 5b 3c
       0.06421289 0.080198646 0.04524884 0.013393406
000300 b3 73 cf be 06 91 4f bd 73 81 47 3e e7 60 bd 3d
       -0.4051796 -0.050675415 0.19482975 0.09246998
000310 bb c1 5f bf 62 99 29 bf b6 7c 52 3e d1 16 bd bf
       -0.87404984 -0.6624967 0.20555386 -1.4772588
000320 1f 44 e3 bd b0 ab 3c be ab 39 38 bf a6 7d 6c bf
       -0.110969774 -0.18424869 -0.71962994 -0.92379224
000330 cb c2 d6 be fe d9 a4 bf af 15 e2 3e f9 1a 01 3e
       -0.4194549 -1.2879026 0.44157168 0.12607946
000340 47 21 c5 3c 53 70 1f 3f 4d ce 1f 3e 0e 7f e5 3d
       0.02406372 0.6228077 0.15606041 0.112058744
000350 2b be 85 3f 73 ea d6 bf 81 3c fc 3d 6a 80 9a 3c
       1.044866 -1.6790298 0.12316228 0.01886006
000360 74 bc 2d 3e 26 ed c6 3d 7d eb 47 40 70 7b 17 be
       0.1696642 0.09713201 3.123748 -0.14793181
000370 c1 b2 ad 3e cc d6 14 3f 77 01 36 3d d9 aa 1a 3d
       0.3392544 0.58140254 0.04443499 0.03776059
000380 f5 86 a9 3d 26 18 56 3d 02 10 48 bf cf 1b e9 bd
       0.08277694 0.052269123 -0.78149426 -0.11382257
000390 76 e1 f9 3e 11 ff 42 bf fa 8d d0 bd 1a 76 5f 3e
       0.48804826 -0.7617045 -0.1018333 0.21822396
0003a0 f5 97 9a be ae be fa bd 38 dd d1 3d 5f 8b 69 be
       -0.3019406 -0.122434005 0.10247272 -0.22807072
0003b0 02 17 3a be f7 79 e6 bf 33 fd 02 be 2b 99 4a bc
       -0.1817284 -1.8005971 -0.127919 -0.01236562
0003c0 92 5f 67 3e b4 21 3c 3e 89 d5 35 be 21 55 a1 3e
       0.22595051 0.18372232 -0.17757238 0.3151026
0003d0 93 75 11 3e 8e 88 14 3e 6a 68 44 3e 55 de b3 be
       0.14205007 0.14505216 0.19180456 -0.35130563
0003e0 b5 ad ea bd 4f 07 40 3d cd c1 d7 bd ae 25 a5 3c
       -0.11458913 0.04688197 -0.105350114 0.020159569
0003f0 39 51 10 be 84 56 03 3e df 50 ff 3d 0e 0c 55 3d
       -0.14093484 0.12825972 0.12466597 0.05201345

conv5.bias f4 [64]
000000 f4 e8 ef be 3f 68 2f 40 a4 48 0b be 22 e5 2a c0
       -0.46857417 2.7407377 -0.13601929 -2.6702352
000010 99 18 a4 bf 23 cc ce be 72 2d 23 c0 67 5c 34 bf
       -1.2820007 -0.4039012 -2.5496488 -0.70453495
000020 cc 38 7f c0 a6 65 10 bd 04 04 d1 3d 88 54 f0 3b
       -3.9878416 -0.03525319 0.10205844 0.0073342957
000030 d5 87 db be 4e 02 1e 3f b6 83 9f 3f ee 9c 76 bd
       -0.4287707 0.61722267 1.246207 -0.060208254
000040 32 28 c7 3e 9d 6a 7b be 38 2a 4f 3f 1d e2 ad bd
       0.38897854 -0.24552388 0.80923796 -0.08490393
000050 10 74 fa bf da b3 85 bf ab ce 76 bd 53 1d c9 3f
       -1.956667 -1.0445511 -0.060255688 1.5712074
000060 60 d6 87 3f 36 90 9c 3e 1e 1d 0a bf ee 76 bf bd
       1.0612297 0.30578774 -0.5395068 -0.09348856
000070 b8 b1 01 be 7b da b3 bd 38 75 68 c0 0f d0 41 c0
       -0.1266545 -0.08781906 -3.6321545 -3.028324
000080 65 8a 3b c0 51 fb 2a c0 a0 43 54 3f 6c 55 3a 40
       -2.930322 -2.6715891 0.8291569 2.9114637
000090 26 10 58 3e 30 ef 39 3f fb f5 cd 3e 44 97 c6 bd
       0.2109991 0.72630596 0.4022673 -0.096968204
0000a0 0f b7 fc bf 6d e2 b3 3f f8 83 c4 3f d1 f3 09 be
       -1.9743365 1.4053475 1.5352774 -0.13471915
0000b0 71 70 a0 be 50 65 2d c0 27 49 76 bd 4c 1e 64 3f
       -0.31335786 -2.7093086 -0.060128357 0.8910873
0000c0 b8 56 e9 bf fd fa 49 be b4 72 71 bd d7 eb 8a bf
       -1.822959 -0.1972465 -0.05894728 -1.0853223
0000d0 4e 0c 05 c0 aa 9e 58 3f 21 2b 82 bf 68 9a e0 bd
       -2.078876 0.846171 -1.0169412 -0.10966951
0000e0 93 a5 f2 bf 89 60 c0 3d 44 8c 80 bd b0 81 88 be
       -1.8956779 0.093934126 -0.062767535 -0.26661444
0000f0 3f fd 8e be 29 6e e3 3f c5 e8 df bd 33 6f cc be
       -0.27927586 1.7767993 -0.10933069 -0.39928588

conv5.lin.weight f4 [64, 64]
000000 8a 51 e8 3e 55 58 a1 3f 54 1b a5 bd 59 a0 10 c0
       0.4537471 1.2605082 -0.08061853 -2.2597868
000010 50 c0 35 bf 92 8b 84 be 12 77 66 40 95 22 ae bf
       -0.7099657 -0.25887734 3.6010175 -1.3604304
000020 44 9d 1f be cd 70 bb bc de 5b 1b 3f d5 6a db 3f
       -0.15587336 -0.022880936 0.60687053 1.7141978
000030 01 34 ad 3f 7d bc 8b bf c0 c6 ee be 72 4c 7a c0
       1.3531495 -1.0916897 -0.4663601 -3.9109159
000040 82 32 89 c0 0c 4f f6 3f 5b ff 56 3f cf 6b 9b bf
       -4.2874155 1.9242873 0.8398339 -1.2142276
000050 ab 4b e6 bd 13 55 1a bf e9 42 85 3e 70 5a a4 3c
       -0.11244901 -0.6028606 0.2602761 0.020062655
000060 36 7e eb 3f ae c1 16 3e 08 02 d1 bd 0f d2 72 40
       1.8397892 0.1472232 -0.102054656 3.794071
000070 26 1f f4 bc 24 84 de be 06 e3 e7 3d 1d 9d 14 40
       -0.029800009 -0.4346019 0.11322598 2.3220894
000080 22 ef cc be 61 1a a6 3e ea d4 38 3d 7d cf 0c 3f
       -0.40026194 0.32442 0.045124926 0.550041
000090 9d e5 7b be 75 78 f8 3f fc 5f fc bb f8 a6 84 3e
       -0.2459931 1.941176 -0.007701872 0.25908637
0000a0 65 36 83 bf 06 23 3e bb 91 83 2f be bd 0f 44 be
       -1.0250975 -0.0029012575 -0.17140032 -0.19146629
0000b0 d9 42 bc be c1 a2 65 c0 59 4e 1c 3f 9c af 11 be
       -0.3676975 -3.5880587 0.6105705 -0.14227146
0000c0 d8 e5 60 3c 5d 4a 14 c0 bb f6 8c 3d f9 ed 8f 3f
       0.013726674 -2.3170388 0.068829976 1.1244498
0000d0 f0 b6 db 3e 03 e7 8f 3c 1b 6f 13 c0 c7 db 19 bb
       0.42913008 0.01756621 -2.3036563 -0.0023476945
0000e0 0a 94 6b 3f 0c 3d 8a 3f 30 40 a9 3f f6 d0 ae 3d
       0.92022765 1.079988 1.3222713 0.0853595
0000f0 4a c4 dd bc bb a5 25 bf b1 b2 73 3f 93 8f 20 bd
       -0.027071137 -0.6470601 0.95194536 -0.039199423
000100 4c ef a7 3e f2 40 b1 bd 86 50 e6 3d 92 cd cf bd
       0.32799757 -0.086549655 0.112458274 -0.10146631
000110 d6 53 8b 3d 50 cc 8c be 76 de 12 bf 66 19 dc be
       0.068031 -0.27499628 -0.573707 -0.42988127
000120 c0 2f e4 bd 3e 2a 03 3e e0 78 c8 3f 5b c7 0c bc
       -0.1114192 0.12809083 1.5661888 -0.008592452
000130 34 79 0c 3f 78 f6 a4 bf d5 87 1a c0 15 c1 72 3d
       0.5487244 -1.2887716 -2.4145405 0.05926617
000140 d9 d9 9e bf 37 05 91 3f 60 1e 98 3e f0 83 c8 bd
       -1.2410232 1.1329716 0.29710674 -0.0979079
000150 f5 4a 1d bf c4 80 3c bf 8f d5 ce be bb c8 00 bf
       -0.614425 -0.7363398 -0.40397307 -0.5030629
000160 9f cc f9 bf 6a 0b 56 be 83 5e 7e 3e a4 4f ac bf
       -1.951557 -0.20902792 0.24840741 -1.3461804
000170 81 26 17 3f dc db af be d0 e1 7a 3f d8 5e 40 bf
       0.5904313 -0.34347427 0.9800081 -0.7514472
000180 e8 40 02 be 57 55 83 3f 90 e9 93 3d 7d 28 e9 3f
       -0.12720072 1.0260419 0.07222283 1.8215481
000190 19 ce 9d 3f 85 09 b7 bf c7 67 ed 3d 7a bc 20 c0
       1.2328521 -1.429978 0.115920596 -2.5115037
0001a0 14 50 c2 bf 56 d8 49 be 78 fc 4f bc 89 58 92 be
       -1.5180688 -0.19711432 -0.012694471 -0.28583172
0001b0 bb 28 44 3f 59 38 60 3e 45 2d 1f be 44 29 95 3f
       0.7662465 0.21896495 -0.15544613 1.1653218
0001c0 77 91 86 bc 89 e4 03 c0 05 bb bd 3e 65 6a 72 bf
       -0.016426785 -2.0608237 0.37056747 -0.94693595
0001d0 28 26 8b 3e cd 6c 25 bf ab 8e 2c bf 8b f0 a5 bf
       0.27177548 -0.6461914 -0.67405194 -1.2964033
0001e0 6a 2c b5 bd 29 23 9e bf 52 16 12 3f b0 70 17 be
       -0.08846362 -1.235448 0.5706531 -0.1478908
0001f0 16 02 d2 3d ee e3 0f bf 85 7f 51 3e 3e fa 27 bf
       0.10254304 -0.5620717 0.20458801 -0.65616214
000200 eb c5 97 3c 08 12 87 be 0c 81 ba bd 7f ef 81 3d
       0.018526992 -0.26380944 -0.09106645 0.063445084
000210 e9 a6 b8 be 75 cf a1 bd 99 c6 a5 3d 6d c8 8c be
       -0.36064842 -0.079008974 0.0809452 -0.27496663
000220 ee 42 de bd 34 77 85 be 38 09 2b be 75 13 dc 3c
       -0.108526096 -0.26067507 -0.16702735 0.026864747
000230 7b 2a 09 bf a2 54 56 be 22 93 cb bd f4 c9 7e bd
       -0.53580445 -0.20930722 -0.09940173 -0.062204316
000240 07 99 36 be 1c 03 16 be 49 49 45 be a5 ae 47 bd
       -0.17831813 -0.14649624 -0.19266237 -0.04875054
000250 66 a2 b6 bd 2f e2 fb bd f9 ac ca 3d 83 7d f2 3d
       -0.08917694 -0.122990005 0.09896273 0.11840346
000260 22 10 74 be 0a c0 4f 3d 20 fc 28 bd 21 0d 01 3e
       -0.23834279 0.050720252 -0.04125607 0.12602665
000270 ec d7 89 ba 35 f8 19 3e 42 45 87 be a7 e6 72 be
       -0.001051662 0.1503609 -0.26420027 -0.237208
000280 8a 5a 67 3d 91 c3 36 3c be 3f f2 bd 97 41 ba bd
       0.05648283 0.011155025 -0.11828564 -0.090945415
000290 98 4b 0e be a2 96 c6 3d a0 aa 9e 3d 45 bc fd bd
       -0.13896024 0.096967 0.07747388 -0.12389425
0002a0 1c e8 4f be 0d 06 c3 3d 02 d9 f3 3d f7 62 1f bc
       -0.20303386 0.095226385 0.11906625 -0.009728185
0002b0 6c 22 cd 3d 68 93 4f be e7 88 7f be e0 72 05 3e
       0.10016331 -0.20271075 -0.24954568 0.13032103
0002c0 df d2 d3 3c 8f c9 a5 bd e8 af e9 3c 27 dd ae bd
       0.025857387 -0.08095085 0.028526261 -0.08538275
0002d0 a8 7d 32 be bd b0 df bd 51 f2 64 bd da bd 77 bd
       -0.17430747 -0.10922382 -0.055895153 -0.06048379
0002e0 4f ca 12 bd 1c 64 3f 3d 72 89 86 3d e8 97 70 3d
       -0.035837468 0.04672633 0.06569184 0.05873862
0002f0 dd ff 26 bd a7 af 23 be e4 a3 4c bd 99 31 72 be
       -0.040771354 -0.15984975 -0.049960986 -0.23651733
000300 71 d8 32 be 80 f0 d0 bf 7a 38 85 3c f7 98 37 c0
       -0.17465378 -1.6323395 0.016262282 -2.8687112
000310 e2 77 01 bc 23 c6 2e be 6d c0 bf 3d d8 c1 39 bf
       -0.007902117 -0.1706777 0.09362874 -0.7256141
000320 40 4f 5b be 40 23 01 3e 48 da 65 bf e7 1a 26 bf
       -0.2141695 0.12611103 -0.89786196 -0.648848
000330 be a0 1d bf bc ee 77 3c d1 94 74 3f de c3 6e bf
       -0.615734 0.015132602 0.95539576 -0.9326762
000340 c2 e4 49 c0 cc 37 08 bf 72 5e 9a 3f 5f 5b e4 3f
       -3.1545873 -0.5321014 1.2060072 1.7840384
000350 95 09 c3 3d f6 8d 34 3e 48 26 19 3f 23 15 d7 bc
       0.09523312 0.17632279 0.5982404 -0.026255196
000360 4a 0f 86 c0 8c 49 2c 3c f6 8e 30 3e 4c f4 1e 40
       -4.1893663 0.010515582 0.17242035 2.4836607
000370 fb 18 af be 5a 7a b5 be c9 a4 4f c0 e0 18 96 bf
       -0.34198746 -0.3544491 -3.2444327 -1.1726341
000380 f3 d2 dd 3e 15 01 e4 c0 9a 77 4c 3d d9 44 2c bf
       0.43325004 -7.125132 0.04991875 -0.67292553
000390 80 ba 1e 3f ab 4d 69 3f 7b 34 36 3e f7 7b 12 3f
       0.62003326 0.91134137 0.17793457 0.57220405
0003a0 3d a5 88 bf 0f b5 1e bf 10 c7 80 3d 2e 20 a2 3c
       -1.0675427 -0.61995023 0.06287968 0.019790735
0003b0 80 db 42 bf c2 8b 77 3f 51 36 27 c0 9e e0 87 bc
       -0.7611618 0.9669763 -2.6126902 -0.016586598
0003c0 2b f6 f4 be 6f 61 dc bd 88 69 fe 3e 1b 25 df be
       -0.4784406 -0.107607715 0.4968989 -0.43582997
0003d0 fd c3 3e 3e dd ed 63 3e 8a 7b 4f 3f 40 3c 85 3e
       0.18629451 0.22258706 0.8104788 0.2602253
0003e0 4c 3a 63 bf 42 f8 13 c0 d4 29 78 3f eb 5f 90 bb
       -0.8876083 -2.3120275 0.96938825 -0.0044059656
0003f0 91 d8 93 bd 06 1a b1 bf dc 8c 14 3f 3e 53 91 bf
       -0.07219041 -1.3836067 0.58027434 -1.1353528

fc.weight f4 [3, 64]
000000 44 7a c8 bf 5b 73 16 40 30 a7 e8 3c 2d 6c 85 3f
       -1.5662313 2.3507907 0.028400034 1.0423638
000010 8e 16 01 bf 26 83 40 bf ea 2c a9 3f a4 62 93 be
       -0.5042504 -0.75200117 1.3216832 -0.28786194
000020 15 b7 a1 bf 8e 73 68 3e 05 f7 93 3e d9 94 b2 bf
       -1.2633997 0.2270033 0.28899398 -1.3951675
000030 d4 11 02 3f 06 01 33 be 1b 98 86 3f d3 9f 2e 3e
       0.50808454 -0.17480859 1.0515169 0.17053156
000040 59 ba 5f 3c 1b 32 65 3d c9 5a 22 3e 10 3e 4d bd
       0.013655269 0.055955987 0.15854944 -0.050108016
000050 e8 b3 81 c0 56 f7 59 3f 50 2c 9c 3d 41 18 95 bf
       -4.053211 0.8514303 0.076256394 -1.1648027
000060 fd ae 13 c0 64 ee f5 3c 5a 5e aa be bd ee d2 3e
       -2.3075554 0.0300209 -0.3327511 0.41197768
000070 68 58 c8 3d 0c e1 f3 bc 99 79 1b 40 d2 5f 02 40
       0.09782487 -0.029770397 2.4292967 2.0370984
000080 45 a1 b8 bf f5 51 72 3f 8f 28 9e 3e 68 91 37 40
       -1.4424216 0.94656307 0.3089032 2.86825
000090 1e c9 f8 be 61 ff 1b bf 29 11 66 bd 75 ec b5 3d
       -0.4859094 -0.6093655 -0.05616871 0.08882991
0000a0 45 35 d2 bf 36 16 04 c0 ae 7f 76 3f 24 54 1c 3f
       -1.6422507 -2.0638556 0.96288574 0.6106589
0000b0 b7 13 9f bd b5 5e 3a bf d3 9f 0e 3d 95 48 b3 bf
       -0.07767432 -0.7280076 0.03482039 -1.4006525
0000c0 d2 05 1f 40 47 83 c7 3e 59 d2 f5 bf e7 ba db bf
       2.4847302 0.38967344 -1.9204818 -1.7166413
0000d0 cf 2c ef 3e 3d ec d6 bf ee a4 51 3f f1 5c e2 3d
       0.46713874 -1.6790844 0.8189229 0.110528834
0000e0 b3 b5 0d 40 b3 4b 20 be 5d d2 21 3d 6a 08 8e bc
       2.214215 -0.15653877 0.03950726 -0.017337997
0000f0 6e f4 6c be 8e a6 0e c0 ef 3e 21 bc b1 b3 de 3e
       -0.23140118 -2.2289157 -0.009841665 0.4349647
000100 d0 ac bc 3f ca ff b4 c0 96 fc f8 3c e3 9b 06 40
       1.4740238 -5.6562243 0.03039388 2.1032646
000110 e6 20 83 bf 60 ab 88 c0 49 10 5a c0 77 3f 2e 3f
       -1.0244415 -4.27092 -3.407244 0.6806559
000120 81 06 81 c0 18 94 52 3e ed f7 ed 3e bf db 20 bf
       -4.032044 0.20564306 0.46478215 -0.62835306
000130 e6 f7 0a be 97 53 07 bf a3 e5 ed bf 4a 21 9d 3c
       -0.13571128 -0.5286192 -1.8585705 0.019180913
000140 f6 53 10 bf 5e 79 2d 3e b5 63 31 bf 9a 11 36 bd
       -0.56378114 0.16940829 -0.69292766 -0.04445038
000150 30 c8 3f 40 85 fd 2b 3d 78 bb 73 bc 6a c9 91 bf
       2.9965935 0.041989822 -0.014876239 -1.1389592
000160 32 8b 9e bf 81 35 4d 40 cf a4 bb bf e1 fe 62 3e
       -1.2386229 3.2063906 -1.465967 0.22167541
000170 b9 94 86 bc 46 3f 0a be 6c df b3 c0 da 08 ad bf
       -0.016428338 -0.135007 -5.621023 -1.3518326
000180 80 4f 20 40 9e 43 4a 40 20 8f 79 bf 0e c2 46 c0
       2.5048523 3.160377 -0.97484016 -3.1055942
000190 c0 93 79 be c1 1b 44 3f 54 78 0e bf a2 2e 21 3c
       -0.24372768 0.7660485 -0.55652356 0.009837778
0001a0 51 d9 0d 40 c7 fd a0 3f 23 06 c6 bf 4f a7 2a 3f
       2.216389 1.2577447 -1.5470623 0.6666154
0001b0 3c 8d c6 3d 78 f9 3f c0 02 4a 75 3d 92 af 3a 3f
       0.09694907 -2.9996014 0.059885032 0.7292415
0001c0 35 df b2 bf 43 c6 9c bf f0 30 28 3f ad 45 1b 40
       -1.3974367 -1.2248005 0.6569967 2.4261277
0001d0 16 6a 7d c0 72 5d 10 40 05 6f af bf d3 fd 22 bc
       -3.9596 2.2557034 -1.3705755 -0.009948212
0001e0 f7 17 3b c0 40 7b 74 be 1b 9e 0f 3d 9b 5d d1 3d
       -2.9233377 -0.23875141 0.03506289 0.10222932
0001f0 29 77 70 3f 56 6d d5 3f a0 d9 15 3d a2 61 8c bd
       0.93931824 1.6673992 0.036584496 -0.068545595
000200 4f 14 15 bf 3c 42 64 bf 84 20 1d bd 11 f2 a0 bf
       -0.58234113 -0.89163566 -0.038361087 -1.2573873
000210 3e 83 96 3f b7 5e 04 40 f8 d0 b7 3f 22 b3 56 3d
       1.1758802 2.068281 1.4360647 0.052416928
000220 ea b2 12 40 99 3c b1 be 84 ee 28 bf 7a 8f b2 3f
       2.29217 -0.34616545 -0.65988946 1.3950036
000230 3b b0 a6 3e f1 de 6c 3e 4c a2 11 be 01 31 07 bc
       0.32556328 0.2313192 -0.14222068 -0.00825143
000240 5b ed 78 3e c2 45 a4 3d 1c 69 80 3e 64 11 a1 3c
       0.24309294 0.08021118 0.25080192 0.019661613
000250 4f f3 a4 3f 10 98 7f bf 62 02 ec 3c 0d db 9b 3f
       1.2886752 -0.99841404 0.02880973 1.2176224
000260 ed 5c 28 40 30 3f bf bf e2 40 8e 3f 76 d4 07 bf
       2.6306717 -1.4941158 1.1113551 -0.53058565
000270 a5 41 17 be c3 ab aa bd 4c fe 35 bf 2a 0b b3 bf
       -0.14771135 -0.08333542 -0.7109115 -1.3987782
000280 d5 23 cb 3e e3 96 fd bf 33 07 50 3d 91 9d cf bf
       0.39675775 -1.9811672 0.050788116 -1.621996
000290 6f 06 04 3f d3 cc 26 3e f8 11 c9 3e c7 b2 26 3e
       0.51572317 0.16289072 0.39271522 0.16279136
0002a0 91 f1 55 3f 9a 72 64 3f 65 5b 03 bf d7 0b 5f bf
       0.83571726 0.8923737 -0.5131133 -0.8712744
0002b0 b9 04 f6 bc 11 ec e9 3f 6f 2e 00 3e 7b 71 9c 3f
       -0.030031549 1.8275167 0.12517713 1.2222131
0002c0 e9 72 2d c0 a5 70 0a bd 95 b6 7f 3f bf 93 37 3f
       -2.7101386 -0.033798832 0.99887973 0.7170982
0002d0 2c 26 78 3f 45 f0 e1 bd e8 b4 0c 3e de 63 3f 3d
       0.96933246 -0.11032156 0.13740885 0.0467261
0002e0 c3 0e 68 bf 71 0a ae 3e bb 3f 22 3e ec da 04 3d
       -0.90647525 0.3399234 0.15844624 0.032435343
0002f0 b5 b1 16 3e 71 ca 87 3f c1 5d 4c bc c4 5f 18 3e
       0.14716227 1.0608655 -0.012473525 0.14880282

fc.bias f4 [3]
000000 dc 88 17 3d a1 08 8b 3d 36 b8 31 3e
       0.036995754 0.06788755 0.17355427
